ADDobstacle/params_actor.pth (torch_old, 15193 bytes, 4 tensors)

fc1.weight f4 [300, 9]
000000 d1 0b 8f 3e 11 8d fc be 8f d5 1e bf 88 0d 8e bf
       0.27938703 -0.49326375 -0.62044615 -1.109788
000010 55 c9 17 bf 30 30 ae be 86 52 e7 3e 55 23 c6 3e
       -0.59291583 -0.3402114 0.45180148 0.3869883
000020 4b 07 c6 bd a5 13 91 be 8b bb ff be fc 6a 4d 3f
       -0.0966936 -0.283353 -0.4994777 0.8024137
000030 cc 65 e8 be 70 06 17 c0 ef a8 31 40 8a 6c 83 c0
       -0.45390165 -2.359768 2.775936 -4.1069994
000040 08 9c 3d 40 15 29 f3 bf 52 e6 09 bd 8c 3f a3 be
       2.9626484 -1.8996912 -0.033666916 -0.3188442
000050 45 ff 39 be dd e3 27 bf fc 82 eb 3d ee 9b 8f ba
       -0.18163784 -0.65582067 0.11499593 -0.0010956505
000060 64 67 39 3f ec ab 90 be 76 3a 85 3c f2 d9 e7 be
       0.72423387 -0.28256166 0.016263228 -0.45283467
000070 25 6e 9e be ab cf 15 38 b7 f1 e5 3e b0 9e bd be
       -0.3094341 3.5717774e-05 0.44910976 -0.3703513
000080 57 9b 08 3f 3d 88 a5 be ae c7 32 bf f0 fa 2b be
       0.5336203 -0.32330504 -0.6983594 -0.16794944
000090 4a d3 5d 3d c4 49 ab bf 34 ac c4 be 0e 15 0b bf
       0.05415658 -1.3381886 -0.3841263 -0.54329
0000a0 0e e7 82 3f f9 ad 58 be 71 d1 aa 3f b7 20 82 be
       1.0226762 -0.21160115 1.3345166 -0.25415584
0000b0 62 f8 df be fc e6 11 be 2e df ba be 54 1e e5 3d
       -0.4374419 -0.1424827 -0.36498398 0.11187425
0000c0 20 e2 46 3e e1 f2 82 3e bc fc b1 bc b3 0c b9 3d
       0.19422197 0.25575927 -0.021726958 0.09035625
0000d0 8f b4 c8 bd 0a 61 2e 3e 78 d8 91 bf c5 39 02 bf
       -0.09800064 0.17029205 -1.1394186 -0.508694
0000e0 14 80 b7 be 9b f4 2b bf 71 e9 44 3e 36 77 d2 3f
       -0.35839903 -0.67170113 0.19229676 1.644263
0000f0 28 6c 30 3f 11 4a ef 3f a7 2f 0f bf ec d9 88 bf
       0.68915033 1.8694478 -0.55932087 -1.0691504
000100 8a ab f4 3e a2 8b 0d c0 6f 6d b6 3f fd 57 0c c0
       0.47787124 -2.2116475 1.4252146 -2.1928704
000110 27 f0 d5 be db 1a 5f c0 14 4e 64 c0 56 a1 cf bf
       -0.41784784 -3.4860141 -3.5672655 -1.6221111
000120 bf f9 2d bd 37 e7 24 bd 9b 46 39 be 4f 70 55 3e
       -0.042474505 -0.040259566 -0.1809334 0.20843624
000130 e2 db 18 bf ab 2c 19 3f 88 78 40 3e 8d 34 56 be
       -0.59710515 0.5983378 0.18795979 -0.20918484
000140 67 7a eb be 8b bb 2b be 50 98 8b bd 30 e1 c2 bd
       -0.45991823 -0.1677076 -0.06816161 -0.09515607
000150 8e 9f 55 be ce 15 82 3e e8 c7 37 3e 78 c4 a1 be
       -0.20861647 0.2540726 0.17947352 -0.31595206
000160 56 d0 e5 3b 60 cd 10 be 2e 90 cb be 53 56 a5 3d
       0.007013361 -0.14140844 -0.39758438 0.08073106
000170 06 fc 98 be af 0c 19 bf 7b 04 9c 3e 84 db 04 bf
       -0.2987978 -0.5978498 0.30472168 -0.51897454
000180 2f 47 c5 3e de 05 f3 3e ab 76 3e 3f 9c 91 2d be
       0.3853087 0.47465414 0.7439982 -0.16950077
000190 a1 d4 ed 3d af f0 3e bd 72 c5 17 be 6d 2d 0a be
       0.11612821 -0.046616253 -0.14821413 -0.13493891
0001a0 97 c8 06 be ca a6 16 3e d7 28 7b be 9e b4 43 3e
       -0.13162456 0.14712062 -0.24527298 0.19111869
0001b0 d8 43 a6 3e 9e 92 73 3e e9 d2 7b be 89 5a a7 3f
       0.32473636 0.23786399 -0.24592175 1.3074504
0001c0 fe d7 17 3e 08 a1 89 40 5d 8f 89 be 4e e3 0b bf
       0.14828488 4.300907 -0.2686719 -0.54643714
0001d0 45 2f 5d c0 10 c9 8c bf 4e c1 2c bf f8 2e f8 be
       -3.45601 -1.099886 -0.6748246 -0.48473334
0001e0 44 42 2c 3e 38 a1 00 c0 99 38 59 40 87 d2 57 c0
       0.16822153 -2.00984 3.3940794 -3.3722246
0001f0 37 88 74 40 82 25 9d 3f 10 39 f7 bd 3d b4 7f bc
       3.820814 1.2277071 -0.12071431 -0.015606937
000200 f6 e7 88 be ae 85 8f be 08 1e cf 3c 30 60 c8 3d
       -0.26739472 -0.28031677 0.025282875 0.09783971
000210 37 43 f2 bd 51 58 24 bd d0 69 5b 3e 1d bd 11 be
       -0.118292265 -0.040123288 0.21427083 -0.14232297
000220 82 5c b2 be 50 6e 12 3e 35 b9 5a bf 3d 87 8c bc
       -0.34836203 0.14299893 -0.85438854 -0.01715433
000230 ce 8e 03 bf c4 9f 3e bf f4 0f 4f 3e 2b 26 42 be
       -0.5138978 -0.74462533 0.2022093 -0.18959872
000240 94 d2 da be 7a be cf be a7 b0 67 bd 2c 32 c9 3a
       -0.42738783 -0.4057501 -0.056564953 0.0015350035
000250 f9 d8 60 be fe 9f ea 3d 86 5d 12 bf 42 1a 54 be
       -0.21957768 0.11456297 -0.57173955 -0.20713142
000260 42 fa 93 be 9a c6 d8 be 87 e8 4e bf 03 be 68 3e
       -0.2890187 -0.4233902 -0.8082356 0.22728734
000270 d8 6c 40 bb 8d d9 ce 3e ca cf 1f bf ce f9 32 3e
       -0.002936175 0.40400353 -0.62426436 0.17478105
000280 cc 8d a1 bf 60 39 f4 bd 42 66 47 3e d3 f7 b9 be
       -1.2621398 -0.11925006 0.19472602 -0.36321887
000290 f5 4b ce be 44 f3 4c be c5 fb d4 bd 14 79 0e be
       -0.40292326 -0.20014673 -0.10399584 -0.13913375
0002a0 5d f1 a6 be 08 60 0a 3d 8a 80 8c be 26 1b f6 be
       -0.3260602 0.03378299 -0.27441818 -0.48067588
0002b0 97 de de bd 87 76 53 3c 8c 9d 9b be ea 6e ab be
       -0.108822994 0.012906677 -0.30393636 -0.33483058
0002c0 f5 32 6b bd 4e ef d3 be 7e 8b 1f be 25 0c ab bd
       -0.057421643 -0.41393512 -0.15580556 -0.08351926
0002d0 65 9c 82 be 5a f5 40 be d0 fc cd bd 6e e3 36 3d
       -0.25509945 -0.18843594 -0.10057986 0.044650488
0002e0 c2 1d 07 be e7 eb 42 3e 4c f8 66 3d cb 5a b0 3e
       -0.13194945 0.19035302 0.056389138 0.3444427
0002f0 12 d1 9c 3d 4a e2 6c bd cc dd cc bd c2 74 ee 3d
       0.076570645 -0.057832994 -0.10003242 0.116433635
000300 ae 33 d4 3d d0 f6 9f bd 6f 6f 9b 3e a4 94 4d 3e
       0.103614196 -0.078107476 0.30358455 0.20076233
000310 85 68 90 bd 50 16 56 be 4b de 57 bd 67 23 a7 be
       -0.070511855 -0.20906949 -0.05270223 -0.32644197
000320 be 70 05 be db d0 c5 3d d6 2a 85 bd 8e 0e 41 be
       -0.13031289 0.09658977 -0.06502311 -0.18853208
000330 4c 32 a7 be ab 1b ea 3d 00 e0 dc bc dc 62 ae 3d
       -0.3265556 0.114310585 -0.02696228 0.0851495
000340 7f ec 93 be fd 75 b2 3d a6 6b 25 be 52 12 da bd
       -0.2889137 0.08713911 -0.16154346 -0.106480256
000350 64 80 a7 bd 18 09 29 be 1c 95 0c bf ce c3 4a be
       -0.081787854 -0.16507375 -0.5491502 -0.19801256
000360 2c 99 af be 24 e1 33 3e ba 75 42 be d0 11 49 bc
       -0.34296548 0.17566353 -0.18990222 -0.012272313
000370 1e 11 7f be 6c b1 4f 3e 05 c7 a2 bc d6 6b 43 3e
       -0.24908873 0.20282525 -0.01987029 0.19084105
000380 e7 d7 b9 be 49 b7 f1 3d da 76 a3 bf bb 90 1f 3e
       -0.36297533 0.11802537 -1.2770646 0.15582554
000390 92 56 8a bf ec 45 4f 3f 31 4c f3 be 22 ab 6e 3f
       -1.0807669 0.8096607 -0.47519067 0.9322988
0003a0 7b 09 ad bf 47 2e a6 bf 80 05 a0 3f ac 09 e0 be
       -1.3518518 -1.2982873 1.2501678 -0.4375738
0003b0 0f 6e 20 3e 87 eb 98 3e 32 d0 7f 3f e9 c4 27 3f
       0.15666984 0.29867193 0.99927056 0.65534836
0003c0 e5 5b 5f 40 ae 5f b7 bf d5 7a b0 3f 69 e5 4b be
       3.4899838 -1.4326074 1.3787485 -0.19911732
0003d0 a3 bf d7 3d 3c 71 df bc 31 ad 05 bf 3d f0 d2 be
       0.10534599 -0.027275674 -0.52217394 -0.41198912
0003e0 42 d6 b6 be 4b a3 55 3e ee 52 1e be 8c 83 d6 bd
       -0.3571034 0.20863073 -0.15461323 -0.10474309
0003f0 0c b7 07 be fd 33 e4 be ce d7 73 bf 30 28 b8 bf
       -0.1325342 -0.44570914 -0.95251167 -1.4387264

fc1.bias f4 [300]
000000 c0 02 83 3e 92 a4 53 3f 06 5b a5 be 6b bd 53 bf
       0.25588036 0.8267299 -0.32296008 -0.82710904
000010 7d d4 48 bf 65 7a b7 be 7d 7f e8 bf e6 8c 86 bf
       -0.7844923 -0.35835567 -1.8163906 -1.0511749
000020 a7 1d 47 bf 4b c1 a6 bd 16 3e 07 bf 57 37 a1 be
       -0.7777962 -0.081423365 -0.5282911 -0.31487533
000030 93 31 80 bf 31 7b 0c bf 18 74 07 3d 17 fc ce be
       -1.0015129 -0.54875475 0.0330697 -0.40426704
000040 3f bd bb 3a 16 66 19 bf aa 18 fe bc 75 51 75 3d
       0.0014323368 -0.59921396 -0.03101762 0.059892137
000050 53 be 4f be 19 14 0c bf 56 8c 18 bc aa ac 16 bf
       -0.20287447 -0.54718167 -0.009310802 -0.58857214
000060 6b 63 ad be 32 c1 1e bf 38 d7 2b bf b9 54 f8 bd
       -0.33864912 -0.6201354 -0.6712527 -0.121255346
000070 fd 00 f0 be c3 6a 0b bd 8f f2 ca bd 31 d0 23 3e
       -0.46875754 -0.034037363 -0.09909546 0.15997387
000080 07 7b a0 be 05 26 9a be 8c 1c 94 bf 41 a7 a1 3e
       -0.31343862 -0.30107132 -1.1571212 0.31572917
000090 3b 58 de bd 60 bc db 3b bc 7d 3d bf bb f2 52 bf
       -0.108566724 0.0067058057 -0.7401998 -0.8240163
0000a0 b4 8a a3 be 54 c4 a0 be 06 81 72 be 81 eb 97 be
       -0.3194176 -0.31399786 -0.23682031 -0.29671863
0000b0 03 e2 6f be 8c 72 29 be 50 82 c0 be ea b2 4d 3d
       -0.2342606 -0.16547602 -0.3759942 0.050219454
0000c0 c9 c2 90 be e2 62 b0 3d ab cd 41 bd 60 5b 59 be
       -0.2827361 0.086126104 -0.04731528 -0.21226263
0000d0 64 a4 20 bd 31 74 46 bf e2 11 0b be 44 7c 0e bf
       -0.039219275 -0.77521044 -0.1358104 -0.55658364
0000e0 4c 39 d2 bd 52 51 81 bf f1 01 d5 be 24 f4 fa bf
       -0.10264835 -1.0102942 -0.41603044 -1.9605756
0000f0 63 50 53 3e eb 73 f1 3d 89 c9 50 3e 3c ae c4 bf
       0.20636134 0.11789688 0.2038938 -1.5365672
000100 f9 03 cf be 1a 34 1c bf 89 bc 3f be 71 f9 bb bc
       -0.40432718 -0.61017 -0.18724264 -0.022946091
000110 37 61 1d 3e 26 3b 5c be 7f 01 5e be 21 a8 65 bd
       0.15369116 -0.21506938 -0.21680258 -0.056068543
000120 03 09 92 be ba 88 18 3d 73 6a 20 bc ff 63 c0 be
       -0.285225 0.037239768 -0.0097910045 -0.3757629
000130 79 97 e6 3d 98 24 8b 3d 4d 89 18 be 55 23 1e bf
       0.1125936 0.06794089 -0.14896126 -0.6177266
000140 5f d2 1a 3f ef 64 b4 be 9c 23 60 be 6c 8d 29 be
       0.6047725 -0.35233256 -0.21888584 -0.16557854
000150 49 87 a1 bf ed 1c 06 bf 26 14 07 be 35 f7 42 bf
       -1.2619411 -0.5238789 -0.1319128 -0.7615846
000160 96 42 91 be d9 c2 96 be 9b fe 43 be 7a 58 61 bf
       -0.28371114 -0.29445532 -0.19140093 -0.8802563
000170 43 a5 96 be 2f ba 12 3d 25 3b a5 3d 3f f5 9d be
       -0.2942296 0.03582209 0.080679215 -0.3085117
000180 ab cd 82 bc bc 02 ce 3d 7c 35 ae 3d 46 f9 b8 be
       -0.01596721 0.10059115 0.08506295 -0.3612768
000190 1f 60 46 bf 09 e7 1a be 01 87 da bd b9 2d 0a bf
       -0.7749042 -0.15127195 -0.10670281 -0.5397602
0001a0 74 0f 55 be 49 b3 2b be ba 66 fc be b3 12 d5 3c
       -0.20806676 -0.1676761 -0.49297124 0.026009893
0001b0 1f 48 85 be 28 b1 9b be 50 4a fa bd 96 e3 02 be
       -0.26031587 -0.30408597 -0.12221205 -0.1278213
0001c0 c0 39 a8 bf 0e 82 21 bf 5d 20 00 bf ef 5a f6 3d
       -1.3142624 -0.6308907 -0.5004938 0.12029063
0001d0 19 44 d5 be d6 27 22 be 11 8a a0 3f 53 9b 01 bf
       -0.41653517 -0.15835509 1.2542135 -0.5062763
0001e0 17 d4 b9 be 57 84 ad be 33 b1 15 be 02 0a 52 bf
       -0.36294624 -0.3389003 -0.14618377 -0.8204652
0001f0 97 21 35 bc 3e 63 6a be 64 31 c6 be 4b 1a 77 3d
       -0.011055372 -0.2288942 -0.38709557 0.06032781
000200 9d 66 f2 3f 5d 5f 33 be 36 76 bc be 57 a9 92 be
       1.8937565 -0.17516847 -0.36808938 -0.2864482
000210 91 ec 4f be 9e dc 6e be 07 ed 82 be 81 9f 0c be
       -0.20305087 -0.23326346 -0.25571463 -0.13732721
000220 ab 80 14 3f e7 ef 23 be 69 c8 8f bd 7a a6 eb be
       0.5800883 -0.16009484 -0.07020647 -0.4602545
000230 48 3b b2 3d 8b ea ba bd 6c 31 6c bd 51 0f fe be
       0.08702713 -0.09126767 -0.05766432 -0.4962106
000240 4a 1b 78 be 0f 8b 38 be ab 2a 51 be bb 20 ab 3d
       -0.2422916 -0.18021797 -0.20426433 0.08355852
000250 a9 22 ac be 9e 26 1d bf 18 ab ac 3d 1e b8 88 be
       -0.33620194 -0.6138705 0.08431071 -0.2670297
000260 48 ef 46 bf ee f1 49 be 34 2d a9 be 1b d1 ac bf
       -0.77708864 -0.19721195 -0.330423 -1.3501314
000270 46 08 02 3f 9a c2 1b bf ca f2 38 3f aa 9e 9d bd
       0.50793874 -0.60843813 0.72245467 -0.076962784
000280 53 84 d2 bd 61 0c 0a bf d2 b7 c3 bd a5 97 aa be
       -0.10279145 -0.5392514 -0.09556545 -0.3331882
000290 41 c0 17 bd ed 0e 7d 3e da d3 1f bd 22 01 90 be
       -0.037048582 0.24712725 -0.039020397 -0.28125864
0002a0 3e a3 d7 bd e0 b4 29 be bb e4 52 bf 1b 8c e2 be
       -0.10529183 -0.16572905 -0.82380265 -0.44247517
0002b0 b3 de 4e bc 10 56 db bd ee 9b 16 bf 20 ab 82 bf
       -0.012626338 -0.107097745 -0.5883168 -1.0208473
0002c0 dc 9f d7 be 36 db e4 be 07 f9 a8 be 44 ae 27 be
       -0.4211415 -0.44698495 -0.33002493 -0.16375071
0002d0 e1 e1 11 c0 dc 6b c0 3f 58 95 0d bf 20 1f 92 be
       -2.2794116 1.5032916 -0.55306005 -0.28539371
0002e0 58 51 8c be b4 88 3a bf 4e c0 61 be 27 1c 75 be
       -0.2740581 -0.7286484 -0.22046015 -0.2393652
0002f0 c4 c3 18 be f1 01 38 bd b2 a7 a9 bd 3b 82 9a be
       -0.14918429 -0.044923726 -0.082839385 -0.30177483
000300 68 64 09 bd 4c be 36 be 48 10 7d bf 7b 31 2d be
       -0.03354302 -0.1784603 -0.9885297 -0.16913407
000310 e8 f3 53 be 4b 30 95 be 6f fb 8e 3f 95 79 f8 3e
       -0.20698512 -0.29138407 1.1170481 0.4853026
000320 8a 3e c8 bd a6 5e 4a be 9c cd 14 bf ac 61 61 bf
       -0.097775534 -0.19762668 -0.58126235 -0.8803966
000330 ae e8 a2 be 37 db 9a bd c7 48 08 bf 70 0b 1a bf
       -0.31818146 -0.07561343 -0.5323605 -0.601737
000340 b3 69 20 bf 4c db 2d bf 33 37 b5 be 1b 88 81 be
       -0.62661284 -0.67912745 -0.35393676 -0.25299153
000350 30 ad 3a be f2 a6 07 be d4 6a b4 be dc 98 82 be
       -0.18230128 -0.13247278 -0.35237753 -0.25507247
000360 dd 93 ca 3e 6a 48 d1 be cc a7 4c be bf 7f d3 bd
       0.39565936 -0.4087556 -0.19985884 -0.103271
000370 f0 62 9b bd 60 59 36 bd 89 b2 68 be 1c 00 10 be
       -0.0758723 -0.04451883 -0.22724356 -0.14062542
000380 fc 78 55 be 71 79 88 be 84 82 ce be 69 89 6a be
       -0.20846933 -0.26655152 -0.4033395 -0.2290398
000390 51 e9 81 be dc 52 1e bf a9 80 e9 be 4b 60 29 3f
       -0.2537332 -0.61845183 -0.45605972 0.66162556
0003a0 12 84 17 be 6a 18 3a 3f 36 d4 f2 bd 39 0b b6 be
       -0.14796475 0.726935 -0.11856882 -0.35555437
0003b0 d2 60 8c bf 34 76 93 be 26 b9 53 be 3c 38 b6 be
       -1.0967047 -0.2880112 -0.20676097 -0.35589778
0003c0 97 c1 6b be a6 a3 81 be ca 6b f1 3e 66 11 62 3d
       -0.23023067 -0.25320166 0.4715255 0.055192374
0003d0 58 32 80 bb 37 27 22 bd 37 a4 4d 3e d7 89 ab bf
       -0.0039122514 -0.03958818 0.20082174 -1.340144
0003e0 60 75 84 3f e9 7b 8b 3e e3 b3 73 bf d2 4b 1b be
       1.034832 0.27242973 -0.9519636 -0.15165642
0003f0 7a a3 07 bf 3a 1a 70 be 63 85 29 be 30 79 38 bf
       -0.5298382 -0.23447505 -0.16554789 -0.7205992

fc2.weight f4 [2, 300]
000000 94 b7 44 40 6a f5 89 c0 f8 44 3c bf 53 87 e5 bf
       3.0737047 -4.311208 -0.7354274 -1.7931923
000010 78 3d 03 3e 2a 3b 57 3c d3 80 8f 40 a3 b7 d0 40
       0.12816417 0.013136664 4.4844756 6.5224166
000020 fd ce f2 be a5 53 24 bc cc 38 99 3e 37 c3 44 bc
       -0.47423545 -0.010029708 0.29926145 -0.0120094335
000030 17 52 84 c0 14 6f 9d bf 9f a6 44 3c 21 33 c7 bf
       -4.1350207 -1.2299523 0.012002616 -1.5562478
000040 38 f8 c6 3e 4b f4 9a bf 8d e9 aa bd d7 0e f0 3c
       0.3886125 -1.2105802 -0.083453275 0.029303951
000050 51 d7 0a 3e 40 36 3c 3d 5a 69 56 3d bc ed 45 be
       0.13558699 0.045950174 0.052346565 -0.1932897
000060 82 5e f6 3c a2 cd 9f bf e1 2a 9c 3f ac f4 c2 3d
       0.030074362 -1.2484629 1.2200586 0.09519324
000070 0c b5 d2 3f 5f 35 bc bd 71 57 72 bd bd fd 9c 3e
       1.6461501 -0.09189867 -0.059165422 0.30662337
000080 69 8d 19 bc 50 67 a8 3e 46 f4 9e c0 e2 ae 52 c0
       -0.009372094 0.3289132 -4.9673185 -3.291924
000090 ff ca a0 bd 18 d2 04 c0 d0 e4 2c 40 7d 10 d3 3f
       -0.078512184 -2.075323 2.7014656 1.6489407
0000a0 cb 06 8e c0 1d 59 51 bd 87 cb eb bc 11 62 1e be
       -4.438329 -0.051110376 -0.028783573 -0.15467097
0000b0 31 21 84 3a 6d 91 4a 3f d8 2e 08 bd 1b bc 05 3f
       0.0010080693 0.7912815 -0.0332478 0.5224015
0000c0 e7 e3 17 bf 8c f2 0f bf 0f 71 10 be fa c0 1e 3f
       -0.59332126 -0.5622947 -0.14105628 0.6201321
0000d0 d3 31 85 3d 0e b2 c3 be d4 0b d3 3e e9 c1 80 3f
       0.06503644 -0.38221782 0.41219962 1.0059177
0000e0 cf 98 6c 3d db 98 3b bf 28 1b 52 40 89 67 4f 40
       0.057762917 -0.73280114 3.2829075 3.2406943
0000f0 c8 76 da bf 5f 2c 1d 3c 34 ab e0 bf 10 6e 8a 40
       -1.7067499 0.009593098 -1.7552247 4.3259354
000100 dd 5a 7f be ee 67 ec bf 40 d7 96 3f d3 62 27 bf
       -0.24937005 -1.8469217 1.1784439 -0.6538517
000110 6c 5f 5f bf 68 89 19 bd 02 60 c3 bf 94 94 6b be
       -0.8725498 -0.037484556 -1.5263674 -0.23005897
000120 ad 29 3d bc 68 e9 fb 3d a6 09 79 be 7d b8 46 bf
       -0.011545581 0.12300378 -0.24320087 -0.77625257
000130 58 d7 9c 3d 18 72 6f c0 cd 92 14 3f 1a 9a 08 c0
       0.07658261 -3.7413387 0.580365 -2.1344056
000140 ec fe c3 3f 97 61 e4 be 5b d3 3c bf bc be 2e 3e
       1.5312171 -0.44605705 -0.7376 0.17064947
000150 27 89 3f 40 e0 8a 5f bd 74 09 83 bb 6c 1b 60 3f
       2.992746 -0.0545758 -0.0039989296 0.8754184
000160 b5 11 42 c0 91 e3 e0 3c 91 f3 36 3d 53 46 75 40
       -3.0323308 0.027452262 0.044665877 3.8324172
000170 45 70 7e bf 90 0b f9 3d f3 0e 8d 3e 3f cf 97 3e
       -0.9939006 0.121604085 0.27550468 0.29650304
000180 a7 db 6a bd b8 b8 62 bc 03 0e df bd 01 c4 82 bf
       -0.057338383 -0.013837986 -0.108913444 -1.0216066
000190 25 30 ce bf f3 1c 29 3e 59 bb c4 3c 30 da 1b bd
       -1.6108443 0.1651495 0.024015116 -0.038049877
0001a0 ad b4 66 3e a3 9c 6d bb cc 13 e5 be 98 da cd c0
       0.2252986 -0.0036256693 -0.44741666 -6.432934
0001b0 d9 2c e0 3c c7 ba 61 3d fb da 43 40 a7 1d a0 3c
       0.027365135 0.055109765 3.0602405 0.01954539
0001c0 3d d7 c6 3f ae 5c c4 be 74 95 57 bf 01 02 30 3d
       1.5534436 -0.3835196 -0.8421242 0.04297066
0001d0 02 bc a2 3c 6e 55 8b be 88 76 1c 3f 61 70 6c be
       0.01986504 -0.27213615 0.61118364 -0.23089744
0001e0 33 e4 7d be 0b d0 b7 bf 55 74 12 bc 77 0d 5c 40
       -0.24794082 -1.4360365 -0.0089388685 3.4383218
0001f0 a1 92 82 bc a3 e8 63 bd ed 37 fc bd 74 55 77 bc
       -0.015939059 -0.05564178 -0.123153545 -0.015096057
000200 b9 a1 ce bf e1 80 00 bf b6 d9 94 bc ff 04 31 bc
       -1.6143104 -0.50196654 -0.018170219 -0.010804414
000210 5e 6c 80 bc 98 fd 5e bc 60 9a 8e 3b fa 41 50 be
       -0.015676674 -0.013610266 0.004351899 -0.20337668
000220 d4 42 f0 3e c1 41 47 bf 66 ff fa be 51 60 7a 3d
       0.46925986 -0.7783471 -0.4902298 0.06112701
000230 88 73 b1 3d e7 48 98 3c 98 df 2e bd 70 a0 63 bf
       0.08664614 0.01858945 -0.042693704 -0.88916683
000240 0b 79 8b bb d6 c2 17 3f e1 b6 c6 bc 2b 5a 59 c0
       -0.004256373 0.5928167 -0.024257125 -3.3961284
000250 f4 e3 90 3f 3e 35 bb bf 95 25 45 be 25 a7 74 3f
       1.1319566 -1.4625623 -0.19252618 0.9556754
000260 13 2e 1c 3f 84 03 37 3c 7e 9a 31 bd 95 5f 63 3f
       0.61007804 0.011170272 -0.043360226 0.8881772
000270 ab bb a5 c0 d2 75 4f be 5c 93 7a 3f 33 bb 63 bf
       -5.1791587 -0.20259789 0.978811 -0.8895752
000280 ff 06 1b 3c cb ed 4a 40 9a 7d 2e 3e ec 3c 01 bf
       0.009462117 3.1707637 0.170401 -0.50483584
000290 ab af d3 3b bd e9 77 40 93 87 06 3c 99 68 40 bf
       0.0064601502 3.8736413 0.008211034 -0.75159603
0002a0 1b 4a 3a 40 90 15 b8 bd ed a5 29 bf 91 b8 11 bf
       2.910773 -0.08988488 -0.6626881 -0.5692225
0002b0 d0 88 5a bb 84 b6 81 be 21 8a 4f 3e 08 ac 50 40
       -0.0033345707 -0.2533456 0.20267536 3.2605
0002c0 62 27 23 bd 65 d0 86 bd a5 bf 51 be b2 6f 42 be
       -0.03983248 -0.06582717 -0.20483263 -0.18987921
0002d0 6a 1b 45 3e 30 48 c0 be 98 2d 93 3f 44 f1 98 bf
       0.19248739 -0.37555075 1.1498289 -1.1948628
0002e0 8c 36 db 3d 6b 47 7d bf 8a ff c6 39 5d a9 9d 3e
       0.10703763 -0.989371 0.00037955894 0.30793276
0002f0 29 08 10 3f 5d 96 88 3d 8f 5b 59 bf d8 cb 39 bc
       0.5626245 0.066693045 -0.8490533 -0.011340104
000300 c3 d1 a7 40 ca 21 8d be b1 40 a9 bf 94 39 30 bd
       5.2443557 -0.27564842 -1.3222867 -0.04302366
000310 1f 2a aa bc da cf 0e bd fe ee eb bf 34 92 90 3e
       -0.020772038 -0.03486619 -1.843231 0.28236544
000320 52 d1 30 3e d2 37 17 bd c8 3b 2a 3f f8 f1 a4 bf
       0.1726735 -0.03691847 0.6649747 -1.2886343
000330 ab 39 16 bc 73 1b 67 be a1 80 19 40 be c2 cf bf
       -0.009169023 -0.22569065 2.398476 -1.6231306
000340 87 62 88 bf c2 e7 77 bf 05 2e 41 3d 10 f2 09 3f
       -1.0655068 -0.9683801 0.04716303 0.53884983
000350 ff f8 f4 bc 99 0a 3e c0 d6 b9 a3 bf 67 05 4d 3d
       -0.029903887 -2.9693968 -1.2791088 0.05005398
000360 f1 fd 11 c0 61 1d 55 bf 80 7b 64 3c a9 9b 6d 3d
       -2.2811244 -0.83247954 0.01394546 0.058009777
000370 36 be 58 be 42 80 cd bc 45 a6 88 3f 06 9e 2d 3e
       -0.2116631 -0.025085572 1.0675741 0.16954812
000380 e7 5a 1d be 7d 12 fb 3e 08 88 26 bf 8f 6e de 3f
       -0.15366708 0.49037543 -0.6505132 1.737749
000390 a5 59 d2 3c 46 5a db 3f 24 a4 17 bf 8e b0 07 40
       0.025677511 1.7136924 -0.59234834 2.120151
0003a0 34 07 fb 3d ab 5b 90 40 1b 35 19 bd f5 37 63 40
       0.12257233 4.51119 -0.03740416 3.5502903
0003b0 14 7d 14 c0 26 8d bd 3c 24 b7 50 3c 3c 3c c9 bc
       -2.3201342 0.023138594 0.012738977 -0.024564855
0003c0 a6 15 8a c0 f9 1f 04 bd b1 47 28 40 2c b2 a4 3d
       -4.3151426 -0.032257054 2.6293757 0.08041796
0003d0 1a 86 60 be bb f6 6d be 4b 60 e4 be b5 d0 57 bf
       -0.21926156 -0.23238651 -0.44604716 -0.84302837
0003e0 51 6c 35 c0 a3 d2 ce be af 95 ad bf 6c 23 9b 3c
       -2.834736 -0.40395078 -1.3561305 0.018937789
0003f0 d1 98 98 c0 3c cc b4 bf 48 74 6a 3e 7b 2f ba 3f
       -4.7686543 -1.4124827 0.2289592 1.454574

fc2.bias f4 [2]
000000 cd 3d 89 bf 97 4f f4 bd
       -1.0721985 -0.11929243
