ADDobstacle/params_critic.pth (torch_old, 16393 bytes, 3 tensors)

fc1.weight f4 [300, 11]
-2.1060278 0.36301753 -2.3571997 -1.1104324 -0.15253632 0.29744592 -0.5845848 2.6334894
-0.132136 0.8772598 -0.078400515 0.12797004 0.3946851 0.24631223 0.14984673 0.2822085
-1.9183396 0.9334953 -2.3073733 -2.54364 -0.35773283 -0.1210288 -0.1707729 -0.34856176
-0.28861585 -1.065592 -0.009988432 0.6506147 -0.13788721 0.03301812 -0.30147937 -0.38803396
-0.06320839 -0.9401001 -0.05468415 -0.12831515 -2.070549 0.9108986 -0.72881055 0.030772356
0.63367975 -0.119604476 -0.027758664 -0.005147279 -0.10383413 0.7327736 0.30966964 -0.59942836
2.9647775 -2.1165454 2.1336935 0.89526016 -1.0865015 0.17619449 0.080402926 0.30406004
-0.599599 1.1279786 -0.8813835 -0.34966323 0.5883111 -3.5278609 1.1528912 0.53940296
-0.15409206 -0.19320178 0.30621886 0.4492704 -0.351004 0.20871796 -0.73164445 0.7435483
1.662431 0.25364187 0.5517074 0.14119329 -0.48426834 -0.18361922 -0.2852776 -0.5863792
-1.6725538 -1.144071 -1.1875484 -0.5825759 0.089837186 0.09574464 0.05695051 0.031508088
0.7820393 -0.47603327 -0.58789736 0.6422559 1.2217733 -1.7011501 5.087495 -4.3322163
-0.13101132 0.10330373 0.0038609658 -0.493839 -0.30240348 0.03984505 -2.2640004 0.33894357
-0.33674115 0.09332557 0.12612462 0.0055535156 -0.009062331 -0.20684473 -0.9062739 -0.28632298
-0.7491865 -3.0917137 0.65716165 -0.59139603 0.58519197 0.93316513 -0.48632723 -0.30938342
-0.1855815 -0.112618 0.7989375 0.35732162 -0.49020204 2.0217001 0.57544404 1.648033
4.259195 -0.2285206 -0.5494863 -0.13172325 -0.20852257 -2.0184925 0.21411054 -1.1341987
2.0420487 1.0575829 0.62004644 -0.2720715 0.33072633 -0.03582513 0.2521208 -0.0037422944
0.24441323 -0.04309329 0.99934524 1.038695 1.8299469 0.7487229 0.27426454 0.8772746
-0.27315828 0.083182454 -0.41527596 -0.17660035 -0.52342963 0.14808595 0.23950216 1.4109071
0.021243198 1.4222907 0.89293957 -0.27369165 1.1623452 -1.5710359 0.25253072 -0.6149444
-2.6236436 1.2342802 -0.30983526 0.77421165 1.6685561 0.052767396 0.83187443 0.6233674
-1.4244211 0.044675376 -1.2752826 -2.87945 0.30652815 0.062326 0.7459412 1.9488593
-0.33083826 0.935908 0.67247885 -1.6669512 0.8607958 -0.75114244 -0.1822497 -0.17156947
-0.2037312 -1.186134 2.4789488 2.1946099 -0.22032253 -0.20707649 -0.87043726 0.5293581
0.27074826 1.3707173 2.129508 1.1096674 0.063985355 -0.6723145 -0.64432335 -0.40041596
-0.13305223 0.503227 -0.40193704 -0.56377804 0.23753215 -2.621071 3.036043 0.09144498
2.1567514 -1.6829946 -0.20328575 -0.012138112 -0.19010149 0.044018526 -0.3234227 -0.25416636
0.18306012 -0.07054807 -0.19180663 0.022102877 0.015786037 -0.09468637 0.033104282 0.5314421
-0.63506955 -0.1504416 -0.17470118 1.359292 1.304131 2.552925 0.23107998 -0.22878107
0.6320057 -0.72437114 0.15713666 -0.75747114 -0.22889492 0.6557415 0.07606968 -2.1802673
2.4403377 -5.607204 -0.17030549 0.08638901 -0.029953705 -0.61196476 -0.3985278 -0.4884033
00000000: 29c9 06c0 6fdd b93e 5cdc 16c0 a622 8ebf
00000010: 7b32 1cbe d54a 983e 59a7 15bf 178b 2840
00000020: a94e 07be 1994 603f 7390 a0bd 940a 033e
00000030: 2a14 ca3e 4639 7c3e 6c71 193e a27d 903e
00000040: 278c f5bf 8cf9 6e3f 01ac 13c0 ffca 22c0
00000050: c228 b7be f3dd f7bd 17df 2ebe b076 b2be
00000060: 75c5 93be 5265 88bf 85a6 23bc af8e 263f
00000070: 4e32 0dbe 023e 073d 815b 9abe 63ac c6be
00000080: 6673 81bd 66aa 70bf 7dfc 5fbd 0c65 03be
00000090: e083 04c0 a730 693f 5493 3abf 4f16 fc3c
000000a0: d638 223f 31f3 f4bd 2366 e3bc 81aa a8bb
000000b0: fda6 d4bd 0d97 3b3f 058d 9e3e 2374 19bf
000000c0: eabe 3d40 7b75 07c0 6f8e 0840 c52f 653f
000000d0: 7b12 8bbf 546c 343e 4aaa a43d c2ad 9b3e
000000e0: 527f 19bf 9a61 903f 59a2 61bf 0f07 b3be
000000f0: 8e9b 163f 79c8 61c0 f091 933f 5016 0a3f
00000100: 4fca 1dbe b0d6 45be b8c8 9c3e c506 e63e
00000110: ccb6 b3be 29ba 553e 0d4d 3bbf 2e59 3e3f
00000120: 8aca d43f 59dd 813e b23c 0d3f f994 103e
00000130: 05f2 f7be ad06 3cbe e80f 92be f21c 16bf
00000140: 3e16 d6bf eb70 92bf 9601 98bf b223 15bf
00000150: 8ffc b73d c415 c43d f044 693d a00e 013d
00000160: ba33 483f a2ba f3be 7180 16bf e26a 243f
00000170: 1163 9c3f 49bf d9bf c2cc a240 84a1 8ac0
00000180: d527 06be e890 d33d 4208 7d3b 77d8 fcbe
00000190: a1d4 9abe 9034 233d 62e5 10c0 038a ad3e
000001a0: 5669 acbe 7a21 bf3d d026 013e 44fa b53b
000001b0: 2c7a 14bc 1bcf 53be 9101 68bf ed98 92be
000001c0: b0ca 3fbf a3de 45c0 bf3b 283f bb65 17bf
000001d0: 24cf 153f e9e3 6e3f e2ff f8be 8167 9ebe
000001e0: 1409 3ebe 44a4 e6bd 2b87 4c3f dcf2 b63e
000001f0: c3fb fabe 8963 0140 4d50 133f bff2 d23f
00000200: 534b 8840 4e01 6abe 22ab 0cbf 76e2 06be
00000210: f186 55be fb2e 01c0 cb3f 5b3e 6c2d 91bf
00000220: edb0 0240 e05e 873f 5dbb 1e3f f54c 8bbe
00000230: f654 a93e 5fbd 12bd fa15 813e 4841 75bb
00000240: 7647 7a3e 9782 30bd 17d5 7f3f f5f3 843f
00000250: b33b ea3f 4eac 3f3f 676c 8c3e 1195 603f
00000260: 67db 8bbe 905b aa3d 0d9f d4be b9d6 34be
00000270: 7cff 05bf d8a3 173e 0e40 753e 9b98 b43f
00000280: 3706 ae3c 9f0d b63f b097 643f 5021 8cbe
00000290: bac7 943f b417 c9bf b54b 813e ff6c 1dbf
000002a0: c7e9 27c0 e5fc 9d3f baa2 9ebe bc32 463f
000002b0: 3f93 d53f a022 583d b9f5 543f 0295 1f3f
000002c0: 6e53 b6bf 87fd 363d 763c a3bf e948 38c0
000002d0: 42f1 9c3e 8c49 7f3d 01f6 3e3f 3974 f93f
000002e0: a263 a9be ab97 6f3f 9327 2c3f a85e d5bf
000002f0: 1d5d 5c3f df4a 40bf aa9f 3abe e8af 2fbe
00000300: e99e 50be 3dd3 97bf 19a7 1e40 7d74 0c40
00000310: 3b9c 61be dc0b 54be fad4 5ebf 0384 073f
00000320: 849f 8a3e aa73 af3f dc49 0840 9509 8e3f
00000330: c10a 833d ce1c 2cbf 60f2 24bf 5203 cdbe
00000340: d83e 08be 7cd3 003f b1ca cdbe c253 10bf
00000350: a13b 733e a1bf 27c0 874e 4240 8147 bb3d
00000360: 3708 0a40 5e6c d7bf 242a 50be efde 46bc
00000370: f7a9 42be c54c 343d a997 a5be 1822 82be
00000380: 1d74 3b3e 827b 90bd f568 44be 1811 b53c
00000390: b851 813c edea c1bd 5b98 073d 970c 083f
000003a0: eb93 22bf 5d0d 1abe dee4 32be 48fd ad3f
000003b0: c4ed a63f 2063 2340 3ba0 6c3e 9645 6abe
000003c0: 20cb 213f 6370 39bf 6fe8 203e a1e9 41bf
000003d0: 6e63 6abe adde 273f 6cca 9b3d 8089 0bc0
000003e0: 7e2e 1c40 376e b3c0 9064 2ebe b9ec b03d
000003f0: 7961 f5bc b9a9 1cbf d60b ccbe ff0f fabe

fc1.bias f4 [300]
-0.16869205 1.113285 -0.39691937 0.053468194 -0.60470766 0.65297186 -0.43166935 -0.07303135
-0.3044989 0.13138057 -0.013499916 -0.95982957 -0.54630286 -0.7229791 0.3874406 -0.38135076
0.3710522 -0.28081015 -0.6714916 0.63947976 0.0068842014 0.4640221 0.3896697 0.23561709
-1.3149134 -0.33830237 -0.22630934 -0.32538405 -0.16879217 0.22025698 0.23498413 -0.25504512
0.30176935 -0.5219277 0.24441214 0.3648559 -0.026039861 -0.5987709 -0.058996286 -0.029985916
-0.3997978 0.5170969 0.5690519 -0.45042148 -0.03125369 0.02596676 -0.88840055 -0.5068237
-0.26239607 -0.26406273 -0.3100137 0.60290456 -0.2124092 -0.17163421 0.53848904 0.5053238
1.0063554 1.0594158 -0.5924268 -0.42479724 -0.11179512 -0.10245517 0.14941154 -0.08856918
-0.3615456 -0.7362095 -0.8158746 -0.9116596 -0.18125144 -0.039075136 0.5751338 0.55945057
-1.1478575 -0.3220481 -0.10711629 -0.016684739 -0.47968933 0.4374913 -0.24686283 -0.40264332
0.053166308 -1.1477518 -0.3848586 0.016681334 -0.3166018 -0.21051736 0.16916545 -0.12622915
0.030382548 0.4782883 0.0057744766 0.59280795 -0.30586252 -0.2265116 0.30968302 -0.12694673
-0.25859496 1.3312005 -0.14914647 0.36937046 -0.08600796 0.5864399 -0.49985725 0.05579333
-0.07288096 -0.67742246 -0.38247374 -0.087939106 -0.30399933 -0.1888671 -0.58284354 0.47670922
0.4387276 -0.4878872 -0.036666952 -0.07147705 -0.9734121 0.16520026 -0.29221874 0.06997566
-0.24953978 -0.13240393 -0.97190106 -0.6240093 0.38310653 0.084519215 -0.7605707 -0.101983465
-0.102023326 -0.08754755 1.423003 -0.6845763 -1.6040823 0.44105026 0.46969923 0.19950813
0.122141026 -0.23568071 0.2690669 0.41818303 -0.24120975 0.18488985 -0.023805458 -0.16642542
-0.07531899 -0.35677385 0.43953553 -0.061566155 -1.9841229 0.6040381 0.19834392 -0.86570024
0.26828682 0.2679133 -0.320064 1.3015274 0.2946815 -0.12415085 -0.30316895 0.085576
-0.12811416 -0.42498973 0.3060327 -0.121513404 -0.8142006 -1.0906901 0.9061397 0.5316201
-0.5990214 0.15907986 0.86412334 -0.123394914 0.28856447 -0.6336169 -1.5884567 -0.013626257
0.75545835 -0.246093 -0.45921773 -0.42611644 0.2584133 0.34323317 0.24883805 -0.28603166
-1.0881191 -0.2650432 0.056632154 -0.34356886 -0.077959344 0.10908085 -2.1944895 0.9708054
-0.45271847 -0.34624618 0.5209222 0.31840348 -0.15192376 0.13845314 0.4618138 0.06813712
-0.28374746 -0.9162637 -0.30508992 -0.83679014 -0.04588208 -0.0923549 0.89221853 -0.6693264
0.15067782 0.93372977 0.53287596 -0.3669437 0.50395525 -0.37672672 0.35098767 -0.18225625
-1.1597282 -0.1322835 -0.025934093 0.037406996 0.12500581 1.5689875 -0.25220963 -0.40614793
0.36852115 -0.02262356 0.033382002 0.550172 0.09498949 -0.8913441 -0.22286327 -0.22866593
0.22637014 1.0575453 0.052981924 -0.6454115 -0.28162953 -0.27377295 -0.23975131 -1.0518018
-0.5835486 0.35509694 0.122302495 0.13256934 -0.44236627 -1.0810567 0.9060945 0.32932556
0.46241608 -0.031102367 -0.4584756 0.24701764 0.06702466 0.7329975 -1.185024 0.5493176
00000000: 9cbd 2cbe 1f80 8e3f 0439 cbbe 7701 5b3d
00000010: 1fce 1abf 2a29 273f c403 ddbe 7691 95bd
00000020: 48e7 9bbe a188 063e c02e 5dbc 64b7 75bf
00000030: 81da 0bbf 2915 39bf 9d5e c63e 6840 c3be
00000040: 8efa bd3e 59c6 8fbe e0e6 2bbf f2b4 233f
00000050: de94 e13b 4e94 ed3e c982 c73e 9b45 713e
00000060: 154f a8bf f835 adbe a3bd 67be bd98 a6be
00000070: dbd7 2cbe 0c8b 613e ae9f 703e 4695 82be
00000080: 8381 9a3e 0e9d 05bf 2d47 7a3e 64ce ba3e
00000090: 8c51 d5bc 0d49 19bf 17a6 71bd 06a5 f5bc
000000a0: 4cb2 ccbe 7660 043f 63ad 113f a59d e6be
000000b0: df03 00bd 3eb8 d43c 386e 63bf 33bf 01bf
000000c0: c758 86be 3b33 87be 1eba 9ebe f457 1a3f
000000d0: cc81 59be e1c0 2fbe 6bda 093f e75c 013f
000000e0: 41d0 803f f09a 873f 48a9 17bf 067f d9be
000000f0: d7f4 e4bd 04d4 d1bd 57ff 183e c263 b5bd
00000100: 811c b9be 3a78 3cbf 28dd 50bf 8662 69bf
00000110: fa99 39be 400d 20bd f83b 133f 2738 0f3f
00000120: ffec 92bf 7de3 a4be c95f dbbd 6fae 88bc
00000130: d799 f5be dcfe df3e 9cc9 7cbe 4427 cebe
00000140: eac4 593d 88e9 92bf 300c c5be 4ba7 883c
00000150: a219 a2be dd91 57be b539 2d3e 3742 01be
00000160: d2e4 f83c 34e2 f43e d237 bd3b 43c2 173f
00000170: 039a 9cbe a8f2 67be c68e 9e3e 53fe 01be
00000180: 8f66 84be c764 aa3f dab9 18be 201e bd3e
00000190: f124 b0bd ed20 163f 4aed ffbe 8c87 643d
000001a0: 9d42 95bd 8f6b 2dbf 99d3 c3be 6b19 b4bd
000001b0: cda5 9bbe 6166 41be 3c35 15bf 3b13 f43e
000001c0: e7a0 e03e 5acc f9be 1630 16bd 8f62 92bd
000001d0: 8931 79bf 422a 293e b29d 95be 664f 8f3d
000001e0: 5b87 7fbe e594 07be 82ce 78bf 13bf 1fbf
000001f0: 8a26 c43e 6918 ad3d c3b4 42bf b5dc d0bd
00000200: 9bf1 d0bd 214c b3bd f624 b63f 6440 2fbf
00000210: 9252 cdbf 57d1 e13e 6b7c f03e dc4b 4c3e
00000220: 1325 fa3d 4956 71be 23c3 893e 161c d63e
00000230: b0ff 76be c453 3d3e aa03 c3bc 6d6b 2abe
00000240: d840 9abd 10ab b6be cd0a e13e cb2c 7cbd
00000250: bdf7 fdbf 3ea2 1a3f ab1a 4b3e 889e 5dbf
00000260: e45c 893e ef2b 893e 6edf a3be 7398 a63f
00000270: 7ee0 963e cd42 febd f638 9bbe 7842 af3d
00000280: 5c30 03be 4198 d9be 51b0 9c3e 05dc f8bd
00000290: 736f 50bf bc9b 8bbf c5f8 673f 4118 083f
000002a0: 7759 19bf d5e5 223e 3037 5d3f 79b6 fcbd
000002b0: b9be 933e b834 22bf 8d52 cbbf aa40 5fbc
000002c0: b865 413f ceff 7bbe 961e ebbe ef2b dabe
000002d0: c04e 843e 42bc af3e 67cf 7e3e be72 92be
000002e0: 7d47 8bbf beb3 87be 1ef7 673d 42e8 afbe
000002f0: 26a9 9fbd c865 df3d 8472 0cc0 b486 783f
00000300: b7ca e7be 2e47 b1be 285b 053f c805 a33e
00000310: e791 1bbe a9c6 0d3e dc72 ec3e 798b 8b3d
00000320: 5947 91be 4290 6abf bf34 9cbe e137 56bf
00000330: d9ee 3bbd 9124 bdbd 6f68 643f fa58 2bbf
00000340: 494b 1a3e ea08 6f3f 8f6a 083f 0be0 bbbe
00000350: 3603 013f 53e2 c0be a8b4 b33e 62a1 3abe
00000360: f971 94bf 5375 07be bc73 d4bc 1438 193d
00000370: 8601 003e 95d4 c83f 9f21 81be 9ff2 cfbe
00000380: ceae bc3e 0b55 b9bc 91bb 083d 12d8 0c3f
00000390: da89 c23d 202f 64bf 4536 64be 6727 6abe
000003a0: 93cd 673e a55d 873f 9303 593d b039 25bf
000003b0: bf31 90be f82b 8cbe 5e81 75be 71a1 86bf
000003c0: 7163 15bf 44cf b53e bb79 fa3d 42c0 073e
000003d0: d57d e2be 1160 8abf cff5 673f 5c9d a83e
000003e0: cdc1 ec3e 64ca febc 50bd eabe 31f2 7c3e
000003f0: 3a44 893d b9a5 3b3f deae 97bf 14a0 0c3f

fc2.weight f4 [1, 300]
-2.7685866 1.5969739 -0.110185556 -1.8158026 -1.6557119 1.4249192 -0.21067283 2.4790237
-3.397538 -0.8090345 3.9271507 -1.9745765 2.5252957 -1.0090954 0.85007715 -7.653067
-5.9034753 2.256533 -1.5796312 -2.033036 -0.008950918 -0.6609842 -3.0198054 -1.0515513
-1.6454645 5.008982 3.370901 -2.2229104 0.96065557 -0.9622324 -0.4547773 -3.3996286
2.431189 1.6206396 2.0117037 -3.5256746 -0.86818904 1.6052309 0.9470492 0.015166802
0.71241057 -6.337484 -2.2668054 -0.9119788 0.020373914 0.7516312 -0.7200673 -0.8196819
1.2264339 -0.01884709 0.0047763367 -7.278256 2.3801894 -2.6136007 -2.7234554 -5.4036646
2.0540144 -1.5222614 -1.370427 -4.264146 -1.8167373 -0.17184746 -6.148414 -0.269861
-3.4753473 -1.8532833 -3.1317842 -1.24483 2.0044203 -0.46158135 -3.1243017 1.854657
-1.3531804 0.009317861 0.035963397 1.4370112 3.5985494 -7.3493986 -0.09859735 1.3679907
2.4432178 -4.2009573 -3.2653553 1.2373546 -1.264471 1.5541949 2.3518417 -2.914668
-1.3130621 -2.505617 0.24784376 2.8267438 -2.5841944 3.427385 -4.2841563 1.2747667
0.383715 2.6789324 2.9034529 -10.274581 0.025546119 -10.288938 1.6835219 0.14505832
-0.011296249 -0.6957567 3.7529855 0.0039440873 -1.2403435 0.035990555 1.9911412 1.181693
-9.052066 -1.174288 -6.047275 -2.8321157 -2.0982537 1.885562 -1.0932287 -8.046615
-0.95894027 -1.7784988 -4.590327 -2.664812 -0.856993 -2.6737032 -3.6905308 -2.096943
-0.5514185 0.241138 -1.2536492 -3.3501284 -2.3070333 -1.899923 -1.639217 1.6972593
-7.941709 -2.4830036 0.4981012 1.6893548 -1.4034362 1.3681197 -3.8050215 -1.7156323
-0.8300749 -1.2580253 -3.034548 -0.38425678 -4.0276985 3.2561116 -0.5970324 -0.58889914
-0.7711712 -4.125814 1.3895596 -2.2943158 -3.5278766 -6.6839743 -0.008073498 2.2625859
-2.8830347 -2.284018 -1.9886744 -5.8774505 3.5134237 1.9963162 -2.7319036 -7.576116
4.3872633 -3.219578 1.0214844 0.92480093 -10.361384 -4.4502034 3.6683486 -1.3000149
1.9674965 0.9918386 -1.7890365 0.04034201 -2.8352559 -6.6896954 -3.0741065 -4.374988
-0.8791852 -0.034841955 1.2745768 2.384282 -2.8548224 -2.5007448 -2.0359495 -4.929555
0.024450054 3.194108 -2.3563948 -6.905528 0.017520405 2.0958235 2.075239 -5.8651047
-0.009357404 1.8412783 3.4683363 1.0893139 2.8402445 4.091216 -2.9321241 -0.48611572
-1.0193292 -2.9491906 2.3387346 1.4826541 4.5349035 1.5167806 -1.6557356 0.03122151
-1.5640372 -5.2329974 -0.028630748 -7.049695 -7.779104 -1.93247 0.0050456864 -1.8491026
-6.836186 -1.7774868 -4.6400895 -5.7998095 -5.440373 -1.1532094 0.045302983 -0.8633905
-7.4386187 2.0326781 -5.4754367 -1.5400434 -0.010232104 -7.35618 -1.3751222 1.6964711
2.0341163 1.3738747 2.5984051 -1.9808011 -2.2295613 -0.9440311 -0.8806209 1.1056839
-9.106091 -1.6865404 3.0390193 -8.706197 -7.55359 -5.5261283 -0.5349962 1.8562899
00000000: 8630 31c0 a469 cc3f f7a8 e1bd 386c e8bf
00000010: 5eee d3bf c163 b63f 9eba 57be 53a8 1e40
00000020: 4371 59c0 e31c 4fbf 7056 7b40 ecbe fcbf
00000030: 729e 2140 0a2a 81bf a89e 593f ede5 f4c0
00000040: 45e9 bcc0 096b 1040 5b31 cabf 431d 02c0
00000050: dfa6 12bc 4336 29bf 7e44 41c0 3c99 86bf
00000060: 959e d2bf 9549 a040 d8bc 5740 2a44 0ec0
00000070: 86ed 753f dd54 76bf 92d8 e8be 8493 59c0
00000080: 9a98 1b40 1e71 cf3f c1bf 0040 a7a4 61c0
00000090: a341 5ebf 3578 cd3f d171 723f 2e7e 783c
000000a0: 8a60 363f abcc cac0 5713 11c0 7177 69bf
000000b0: 32e7 a63c e76a 403f 5556 38bf acd6 51bf
000000c0: c9fb 9c3f 3665 9abc d182 9c3b 79e7 e8c0
000000d0: 0655 1840 3c45 27c0 184d 2ec0 d2ea acc0
000000e0: f974 0340 76d9 c2bf 276a afbf e273 88c0
000000f0: d98a e8bf c8f8 2fbe cfbf c4c0 392b 8abe
00000100: 176c 5ec0 6338 edbf 276f 48c0 9756 9fbf
00000110: 6c48 0040 6454 ecbe 8ff4 47c0 6765 ed3f
00000120: 0435 adbf f1a9 183c 5b4e 133d fcef b73f
00000130: a24e 6640 462e ebc0 68ed c9bd 521a af3f
00000140: ae5d 1c40 3e6e 86c0 95fb 50c0 a361 9e3f
00000150: 30da a1bf dcef c63f 9384 1640 ec89 3ac0
00000160: 6b12 a8bf 075c 20c0 c1ca 7d3e 5fe9 3440
00000170: 7163 25c0 475a 5b40 cf17 89c0 8e2b a33f
00000180: 4b76 c43e a173 2b40 2cd2 3940 af64 24c1
00000190: 1846 d13c 7d9f 24c1 a57d d73f 2b8a 143e
000001a0: e713 39bc 1c1d 32bf ea30 7040 673d 813b
000001b0: 93c3 9ebf d56a 133d b7dd fe3f b741 973f
000001c0: 43d5 10c1 124f 96bf 4783 c1c0 6241 35c0
000001d0: ca49 06c0 185a f13f ebee 8bbf efbe 00c1
000001e0: 1c7d 75bf d9a5 e3bf f5e3 92c0 488c 2ac0
000001f0: e563 5bbf f41d 2bc0 a831 6cc0 5034 06c0
00000200: c329 0dbf e1ec 763e 9477 a0bf 8168 56c0
00000210: 6fa6 13c0 ad30 f3bf ddd1 d1bf cb3f d93f
00000220: 7b22 fec0 88e9 1ec0 1f07 ff3e c73c d83f
00000230: cca3 b3bf 8c1e af3f 7985 73c0 d799 dbbf
00000240: ca7f 54bf f906 a1bf 0936 42c0 4ebd c4be
00000250: e8e2 80c0 2264 5040 1ed7 18bf 18c2 16bf
00000260: 7a6b 45bf ab06 84c0 17dd b13f 12d6 12c0
00000270: bbc8 61c0 1ee3 d5c0 b446 04bc 35ce 1040
00000280: a483 38c0 5a2d 12c0 e28c febf 1314 bcc0
00000290: efdb 6040 4a87 ff3f 82d7 2ec0 8b6f f2c0
000002a0: 7664 8c40 910d 4ec0 00c0 823f c1bf 6c3f
000002b0: 3bc8 25c1 1168 8ec0 39c6 6a40 e366 a6bf
000002c0: edd6 fb3f 22e9 7d3f 26ff e4bf aa3d 253d
000002d0: d574 35c0 fc11 d6c0 29be 44c0 e7ff 8bc0
000002e0: 4812 61bf 70b6 0ebd 5525 a33f 1498 1840
000002f0: 69b5 36c0 340c 20c0 ff4c 02c0 eabe 9dc0
00000300: 7b4b c83c 446c 4c40 2ccf 16c0 16fa dcc0
00000310: f486 8f3c f921 0640 b7d0 0440 f0ae bbc0
00000320: cc4f 19bc 02af eb3f 39f9 5d40 a36e 8b3f
00000330: 91c6 3540 3eeb 8240 eca7 3bc0 29e4 f8be
00000340: 6179 82bf 8abf 3cc0 d4ad 1540 9cc7 bd3f
00000350: ee1d 9140 de25 c23f 25ef d3bf 41c4 ff3c
00000360: 5f32 c8bf b774 a7c0 088b eabc 1a97 e1c0
00000370: 6cee f8c0 2d5b f7bf 4956 a53b 65af ecbf
00000380: 09c2 dac0 b084 e3bf 9d7b 94c0 0a98 b9c0
00000390: 8917 aec0 5e9c 93bf 9f8f 393d 2907 5dbf
000003a0: 2a09 eec0 6617 0240 c736 afc0 2420 c5bf
000003b0: 8ea4 27bc d465 ebc0 0104 b0bf f725 d93f
000003c0: f62e 0240 20db af3f 454c 2640 e48a fdbf
000003d0: 22b1 0ec0 06ac 71bf 5f70 61bf 0d87 8d3f
000003e0: 8cb2 11c1 8ee0 d7bf 4b7f 4240 954c 0bc1
000003f0: 02b7 f1c0 0bd6 b0c0 83f5 08bf e89a ed3f
