AutoRobotArm/params_critic.pth (torch, 17155 bytes, 3 tensors)

fc1.weight f4 [300, 11]
0	0xbe0d8ab1	-0.13822438
1	0xbf1ae1ac	-0.605006
2	0xbe684f90	-0.226866
3	0x3e6881db	0.22705786
4	0x3feb8dad	1.8402611
5	0xbe962d3e	-0.29331392
6	0x401ee703	2.4828498
7	0xbfa3495e	-1.2756765
8	0xbe6f52b3	-0.23371391
9	0x3e2a2b02	0.16617969
10	0x3d42e549	0.047581945
11	0x3ce6ffec	0.028198205
12	0xbd92fb5b	-0.071768485
13	0xbea0dd63	-0.31418905
14	0xbdaaf0a7	-0.08346682
15	0xbd923ead	-0.07140861
16	0x3d73f8c2	0.059563406
17	0x3d6c683e	0.0577166
18	0xbdeef4ef	-0.11667811
19	0xbe0e80bc	-0.13916296
20	0x3e05d489	0.13069357
21	0xbd06dfa6	-0.03292813
22	0xbd9fb1c5	-0.07797579
23	0xbe7914fb	-0.2432441
24	0xbe169790	-0.14706254
25	0xbcfae838	-0.030628309
26	0xbd8a7c5a	-0.067619994
27	0x3d12d518	0.035847753
28	0xbd0783db	-0.03308473
29	0xbda09ce8	-0.078424275
30	0x3e12d410	0.14338708
31	0xbe28192a	-0.1641585
32	0xbcddc4bd	-0.027071351
33	0xbd9c6215	-0.07635895
34	0x3e6c50dc	0.2307772
35	0xbee1267d	-0.43974677
36	0xbeb9ae28	-0.36265683
37	0x3f99c82f	1.2014216
38	0xbf1a7bb8	-0.6034503
39	0x3fe3ac94	1.7787042
40	0x3e347beb	0.17625396
41	0xbf4dc61a	-0.80380404
42	0x3ea78a89	0.3272288
43	0xbe65ee7b	-0.22454254
44	0x3e51945a	0.20466748
45	0xbf1f9989	-0.6234365
46	0x3ea13093	0.31482372
47	0xbf3649ef	-0.71206564
48	0x3f0d497a	0.5519024
49	0xbf149ba6	-0.5805
50	0x3e80dec5	0.2516996
51	0x3e21e2e2	0.15809205
52	0x3f4018cb	0.7503783
53	0xbd96e8a1	-0.07368589
54	0x3f692528	0.9107232
55	0xbecd49e8	-0.40095448
56	0xbe16eab6	-0.14737973
57	0x3ebddce3	0.37082586
58	0x3dc245e8	0.0948599
59	0xbfa20edf	-1.2660788
60	0x3d4d789e	0.050163858
61	0xc0401607	-3.0013444
62	0xbdc753f7	-0.09732812
63	0xbdaf1f5e	-0.08550905
64	0xb982f94c	-0.00024981273
65	0x3b9c32f0	0.0047668144
66	0xbd791976	-0.060815297
67	0xbe097882	-0.13424876
68	0xbe6e57d3	-0.2327569
69	0x3f0063ea	0.50152457
70	0xbf8da0f1	-1.106474
71	0x3f85c043	1.0449299
72	0xbf3d651d	-0.7398241
73	0xbf181d14	-0.5941937
74	0xbdb8638b	-0.09003361
75	0xbdec0da3	-0.115260385
76	0x3b98df54	0.0046652947
77	0xbf3798c5	-0.7171748
78	0xbe0709f4	-0.1318739
79	0x3e96eb4c	0.29476392
80	0x3d97d45a	0.0741355
81	0x3f2ef1a1	0.68337446
82	0x3e23f726	0.16012248
83	0x3f08bd03	0.5341341
84	0xbe9b07f0	-0.30279493
85	0x3f42fe18	0.76168966
86	0xbee7f90c	-0.45307195
87	0xbe8a8d7e	-0.27061075
88	0x3e6d990f	0.23202918
89	0xbea34b31	-0.31893304
90	0xbe009130	-0.12555385
91	0xbed1ae14	-0.40953124
92	0xbe2bd4bd	-0.16780372
93	0xbd9c19d1	-0.076221116
94	0xbdee7b72	-0.11644639
95	0x3e333e9c	0.17504352
96	0x3b2979d1	0.0025859962
97	0xbcbed5c9	-0.0232953
98	0xbe2b58d5	-0.16733105
99	0x3c954765	0.01822252
100	0xbed2d0c9	-0.41174915
101	0x3de97093	0.11398425
102	0xbe245c0b	-0.16050737
103	0x3f154661	0.58310515
104	0xbf9cbd7f	-1.224533
105	0x3ee1c13e	0.44092745
106	0xc0274fa0	-2.614235
107	0xbf0d5af0	-0.55216885
108	0x3c0a493a	0.00844031
109	0xbe8626e5	-0.2620155
110	0x3eaa935b	0.33315548
111	0x3d9a7265	0.0754135
112	0x3e99328f	0.29921386
113	0xbe3bf1be	-0.18353936
114	0x3f7a1aa9	0.9769693
115	0xbf6fb463	-0.93634623
116	0x3f1cabd2	0.61199677
117	0xbef6de93	-0.48216686
118	0xbf2e26c2	-0.6802789
119	0x3e7662fc	0.24061197
120	0xbf18736a	-0.5955111
121	0x3f37c631	0.7178679
122	0xbf016cce	-0.5055665
123	0x3d8c9036	0.068634436
124	0xbf30fbd4	-0.6913426
125	0x3ebd5c97	0.36984703
126	0x3fb6109a	1.4223816
127	0x3f7dc824	0.99133515
128	0x3fa42ec2	1.2826769
129	0x3e3869c3	0.18009095
130	0x3e933f5e	0.28759283
131	0xbdceb52a	-0.10093148
132	0x3de9ac3d	0.11409805
133	0xbe6d6230	-0.23181987
134	0xbdf17349	-0.11789567
135	0x3ed86fbd	0.4227275
136	0xbb7b0f75	-0.0038308774
137	0xbfeb91c3	-1.8403858
138	0x3fa04cd6	1.2523448
139	0xc03a4fb4	-2.9111147
140	0xbd76ca22	-0.060251363
141	0xbd9934d9	-0.07480783
142	0x3d9d1df0	0.07671726
143	0xbd5a78af	-0.05333775
144	0xbf17891f	-0.59193605
145	0x3d741875	0.059593637
146	0xbd6b6026	-0.05746474
147	0xbbd94b5c	-0.006631298
148	0x3faa0a45	1.3284384
149	0x3f857583	1.0426487
150	0xbddac479	-0.106820054
151	0xbf014a28	-0.5050378
152	0xbe6f6bcc	-0.23380965
153	0x3e7e360e	0.24825308
154	0xbe9f22de	-0.3108129
155	0x3f29bc98	0.66303396
156	0xbe9aaba1	-0.30209067
157	0x3e0dbe07	0.13842021
158	0xbfd1fd2e	-1.6405389
159	0xbe2d215f	-0.16907261
160	0xbfd4565b	-1.6588854
161	0x3fb6f080	1.4292145
162	0xbf0b41cd	-0.5439728
163	0x3e505319	0.20344199
164	0xbd9f6bc1	-0.07784224
165	0xbe5000e3	-0.20312838
166	0x3ea2a2ff	0.3176498
167	0xbf234503	-0.6377718
168	0xbe49d985	-0.19711883
169	0xbf723901	-0.9461823
170	0xbef3f2f0	-0.47646284
171	0xbf6edb9c	-0.9330385
172	0x3fc41fb9	1.5322181
173	0x3ef30aed	0.47469273
174	0x3ec5fc9c	0.38669288
175	0x3ee523fa	0.4475401
176	0xbe1be054	-0.15222293
177	0x3ec0635b	0.37575802
178	0xbc452133	-0.012031841
179	0xbeee3cfd	-0.46530905
180	0x3f8aef41	1.0854264
181	0xbf89b69c	-1.0758853
182	0x3fb07f93	1.3788933
183	0x3e272e66	0.16326293
184	0x3f2e9948	0.6820264
185	0xbe60cf9e	-0.219542
186	0x3eefc62d	0.46830884
187	0xbe26b599	-0.16280212
188	0x3ed7156a	0.42008525
189	0xbea78928	-0.3272183
190	0xbedbd977	-0.4293935
191	0x3f0c5f6c	0.548331
192	0xbe052e6a	-0.13005987
193	0x3fed608e	1.8545091
194	0x400be54b	2.18587
195	0x3f03c70c	0.51475596
196	0xbc3f8296	-0.011688849
197	0x3d55c7e5	0.052192587
198	0x3e9a0fde	0.3009023
199	0xbe0cb1f7	-0.13739763
200	0x3e0e8079	0.13916196
201	0x3e1c0bb3	0.15238838
202	0x3f44a5db	0.76815575
203	0x3f93f71f	1.155979
204	0x3fc39ff8	1.5283194
205	0x3f9ddae1	1.2332422
206	0xbe8b891b	-0.2725304
207	0xbea19a4f	-0.3156304
208	0x3efef37c	0.4979514
209	0x3dbf2f48	0.0933519
210	0xbe09e676	-0.1346682
211	0xbe9560aa	-0.2917531
212	0x3db1eeb2	0.08688106
213	0x3f465055	0.77466327
214	0x3efeddac	0.49778497
215	0x3fde9359	1.7388717
216	0x3f3011b9	0.6877704
217	0x3f1236b3	0.57114714
218	0x3f13b5a4	0.57699037
219	0x3e1a0577	0.15041147
220	0xbd3a8835	-0.045540053
221	0xbed33ef5	-0.4125897
222	0x3e958259	0.2920101
223	0x3e629640	0.22127628
224	0xbf5810f1	-0.8440085
225	0xbf87ede4	-1.0619473
226	0xbf5b10c4	-0.8557246
227	0xc01ad18c	-2.4190397
228	0x3eef79d8	0.46772647
229	0x3c855607	0.016276373
230	0xbefb864c	-0.49125898
231	0xbdefe935	-0.117144026
232	0x3b85d5b2	0.0040843124
233	0xbe8443bd	-0.2583293
234	0xbf8bad05	-1.0912176
235	0xbeee56f1	-0.46550706
236	0x3e2d909d	0.16949697
237	0xbf8a1835	-1.0788637
238	0x3f91116a	1.1333439
239	0x3f36a14c	0.7133987
240	0x3e64745c	0.22310013
241	0x3d3ccef6	0.04609581
242	0xbd5b36fd	-0.053519238
243	0x3eab63b3	0.33474502
244	0xbe3ad63e	-0.1824579
245	0xbe99ceb2	-0.30040509
246	0x3f6b39cb	0.9188506
247	0x3f57dc14	0.8432019
248	0x3f157314	0.5837872
249	0x403f941f	2.9934156
250	0x3e440c84	0.191454
251	0xbddec6a6	-0.10877733
252	0x3cec1b10	0.028821498
253	0xbe75ba93	-0.23996954
254	0xbd0e1540	-0.034688234
255	0xbe7ac619	-0.24489631

fc1.bias f4 [300]
0	0x3ede9355	0.4347178
1	0xbe2f4568	-0.1711632
2	0xbdca9183	-0.098910354
3	0xbdb21012	-0.086944714
4	0xbed642d6	-0.41847867
5	0x3cea3022	0.028587405
6	0x3f00a916	0.50258005
7	0xbd31d17d	-0.043412674
8	0xbec5a520	-0.38602543
9	0x3e9754e9	0.2955697
10	0x3ea3051f	0.31839845
11	0xbf3b9e7c	-0.732887
12	0xbe294ca0	-0.16533136
13	0x3ddab58d	0.10679159
14	0x3d04683b	0.032325964
15	0x3cb4b61a	0.022059489
16	0xbdea36f3	-0.11436262
17	0x3f30c0ce	0.69044197
18	0xbe2e33c8	-0.1701194
19	0x3e8cb03d	0.2747821
20	0xbee30305	-0.4433824
21	0x3e21e65f	0.15810536
22	0x3e1fe05f	0.15612935
23	0xbe65a28b	-0.22425286
24	0xbf323feb	-0.6962878
25	0xbe6fe607	-0.23427592
26	0xbde3ab4c	-0.11116657
27	0x3ca23488	0.01980044
28	0xbd292ce7	-0.041302588
29	0x3d8992f9	0.06717486
30	0xbef2001b	-0.47265705
31	0xbdabbd83	-0.08385756
32	0x3d65f8c9	0.056145463
33	0xbe913b16	-0.28365391
34	0xbdde5105	-0.10855297
35	0xbe7e32a2	-0.24824002
36	0xbe6e690c	-0.2328226
37	0xbe48efe5	-0.19622763
38	0xbd8cb703	-0.06870844
39	0xbe8bf654	-0.2733637
40	0xbe517503	-0.20454793
41	0xbf0d4c2f	-0.5519437
42	0x3bbccdb4	0.0057618264
43	0xbec30dec	-0.3809656
44	0x3ea00431	0.31253198
45	0xbe2dc628	-0.16970122
46	0xbe2d280d	-0.1690981
47	0xbd6a5077	-0.057205644
48	0xbcb31001	-0.021858217
49	0x3d4b47df	0.04962909
50	0x3dc9bf4e	0.098509416
51	0x3eaa5cf1	0.33274034
52	0xbe3fd8e7	-0.18735085
53	0x3bf4bb1d	0.0074685947
54	0xbd780240	-0.06054902
55	0x3ce0738e	0.02739885
56	0xbf00c0df	-0.502943
57	0xbdc8d7c4	-0.09806779
58	0x3ddfea15	0.109333195
59	0x3e613efc	0.21996683
60	0xbc933a15	-0.017972032
61	0x3e9d7162	0.30750567
62	0xbf04dd0e	-0.518998
63	0xbed558bc	-0.4166926
64	0xbd37a76a	-0.044837393
65	0x3c9e7941	0.019344928
66	0xbe6122e7	-0.2198597
67	0xbe8e821f	-0.2783365
68	0x3c83daf2	0.016095612
69	0xbe892505	-0.26786056
70	0x3d8aa4b0	0.06769693
71	0xbf5d0de9	-0.8634935
72	0xbf17453d	-0.59090024
73	0xbd6da1a0	-0.058015466
74	0xbd2ef153	-0.042710613
75	0xbf2f52c5	-0.6848567
76	0x3e9bff49	0.30468205
77	0xbf053774	-0.5203774
78	0xbebe888a	-0.37213546
79	0x3dd02797	0.10163801
80	0x3d0a59fe	0.03377723
81	0xbf405e9e	-0.75144374
82	0x3ed1f87b	0.41009888
83	0x3e812e2f	0.25230548
84	0x3e61ae42	0.2203913
85	0xbf00593a	-0.5013615
86	0xbf5e890e	-0.8692788
87	0xbe8203a6	-0.2539341
88	0x3eb8dc4d	0.36105576
89	0xbc8880ae	-0.016662922
90	0x3d588011	0.05285651
91	0x3e150f97	0.14556728
92	0xbde0521f	-0.10953163
93	0xbe98882f	-0.297914
94	0xbf1c0828	-0.60949945
95	0xbceccab0	-0.028905243
96	0x3cef361e	0.02920061
97	0xbf2e578c	-0.68102336
98	0xbeb4d30a	-0.3531726
99	0xbce50e32	-0.02796087
100	0x3e844aaf	0.2583823
101	0xbe9127fd	-0.2835082
102	0x3ed7074a	0.4199775
103	0xbe9ed136	-0.3101899
104	0x3eb3d4c5	0.35123268
105	0xbe33547d	-0.17512698
106	0xbdfc0dc8	-0.12307316
107	0xbee5d16d	-0.44886342
108	0xbdb32c35	-0.08748666
109	0x3e73c0ed	0.23804064
110	0xbd77a0e2	-0.060456164
111	0xbe1bc12e	-0.15210411
112	0x3e6d91d9	0.23200168
113	0x3dc7c411	0.097541936
114	0x3e1e6648	0.15468705
115	0x3f0ae5b5	0.54256755
116	0xbf0627f0	-0.5240469
117	0xbe8712e9	-0.26381615
118	0xbbb0c7df	-0.0053949202
119	0xbe11fd77	-0.14256845
120	0x3eb9378c	0.3617519
121	0xbc849bf9	-0.016187655
122	0xbe8f0b4a	-0.279383
123	0x3e729cb8	0.23692596
124	0x3b8ef048	0.00436214
125	0x3eb57107	0.35437796
126	0x3ccb9c7f	0.024854897
127	0xbf1a86df	-0.60362047
128	0xbe923650	-0.28557062
129	0xbd5f2d30	-0.054486454
130	0x3e8d2271	0.2756534
131	0x3f184b0b	0.59489506
132	0xbd0e3ad2	-0.034724064
133	0xbe772e05	-0.24138649
134	0x3e99b3f7	0.30020115
135	0x3c83abf1	0.016073199
136	0xbd1934ba	-0.0374038
137	0xbf302aa6	-0.68815076
138	0xbee81de3	-0.45335302
139	0xbec4c967	-0.38434908
140	0x3f001edf	0.50047106
141	0xbf314066	-0.6923889
142	0xbe20357e	-0.15645406
143	0x3d9b52bf	0.07584142
144	0xbf16f7cf	-0.58971876
145	0xbeabc445	-0.3354818
146	0xbe10a902	-0.14126971
147	0xbec47c2f	-0.38375995
148	0xbe9271b8	-0.28602386
149	0xbe740175	-0.23828681
150	0x3f2b3c3a	0.66888773
151	0x3e103aa8	0.14084876
152	0x3dfd6a35	0.12373773
153	0xbd9292f9	-0.07156939
154	0xbf2351b0	-0.6379652
155	0xbebd99a0	-0.3703127
156	0xbe31c8b7	-0.17361723
157	0xbf2f0b6e	-0.68376815
158	0xbeeb5284	-0.45961392
159	0xbe9d0148	-0.3066504
160	0xbe88b6cc	-0.26701963
161	0xbe0aadca	-0.13542858
162	0xbe65ac7c	-0.22429079
163	0xbefeb361	-0.4974623
164	0xbeaeb15f	-0.34119698
165	0xbeb8d870	-0.3610263
166	0x3e34459a	0.17604676
167	0xbf469f02	-0.77586377
168	0xbe9c21b4	-0.30494463
169	0xbf0c5f36	-0.5483278
170	0x3d74371d	0.059622873
171	0xbc96162a	-0.018321116
172	0x3e5c86b4	0.2153576
173	0xbe86c5cb	-0.2632278
174	0x3dc46094	0.09588733
175	0xbe8aec94	-0.2713362
176	0x3da4e82e	0.08052097
177	0xbe2a612f	-0.16638635
178	0x3e7cdc80	0.24693489
179	0xbdcbf86c	-0.09959492
180	0x3e123512	0.14278057
181	0xbdf08d77	-0.11745732
182	0xbe3f9eb8	-0.1871289
183	0xbec28e6f	-0.37999293
184	0xbdba7bf0	-0.091056705
185	0x3f45225d	0.7700556
186	0x3d866373	0.06561937
187	0x3e334dcd	0.17510147
188	0xbd93cb6d	-0.07216535
189	0x3d869d2b	0.06572946
190	0xbed4d8b5	-0.41571584
191	0xbe2826a8	-0.16420996
192	0xbea910a4	-0.33020508
193	0xbb854e13	-0.004068145
194	0xbe5f6c86	-0.21818742
195	0xbf430d6d	-0.7619236
196	0xbf0239ce	-0.5086945
197	0xbb9545f3	-0.0045554577
198	0xbead5571	-0.3385425
199	0x3ea9a3f4	0.331329
200	0xbf00aa59	-0.5025993
201	0xbdb1728e	-0.08664428
202	0xbeb6fca8	-0.35739636
203	0xbd7890a6	-0.060684822
204	0x3e049d32	0.1295059
205	0xbec79d07	-0.3898699
206	0x3f1c73f2	0.6111442
207	0xbe1f05b6	-0.15529522
208	0xbe856c78	-0.26059318
209	0xbda731be	-0.081637844
210	0x3f202899	0.6256195
211	0xbc752f8c	-0.014964949
212	0xbe01c99e	-0.12674567
213	0xbe15730e	-0.14594671
214	0xbe6b6779	-0.2298869
215	0x3d9a0913	0.07521262
216	0xbf35d156	-0.71022546
217	0xbe8afd9c	-0.27146614
218	0xbe2a7549	-0.16646303
219	0xbe0179a1	-0.12644054
220	0x3f0922fb	0.53569
221	0xbe562ad9	-0.20914783
222	0xbeb8f568	-0.3612473
223	0x3e4bf9ba	0.19919482
224	0x3d8eefb4	0.069793135
225	0xbe934e6c	-0.2877077
226	0x3f0c4ac9	0.54801613
227	0x3dadace5	0.08480243
228	0x3e8505cb	0.25980982
229	0xbdb34a56	-0.08754413
230	0xbf17840d	-0.5918587
231	0xbe84b3d4	-0.25918448
232	0x3f2a3c68	0.6649842
233	0x3ef5eb96	0.480313
234	0x3dd2948d	0.1028224
235	0x3ef535e6	0.47892684
236	0x3f020b4f	0.50798506
237	0xbe7ddff3	-0.24792461
238	0xbf19dc20	-0.6010151
239	0xbe541ef8	-0.20714939
240	0xbdd8730d	-0.10568819
241	0x3ed9fd54	0.42576087
242	0x3df37a4c	0.11888561
243	0x3dd6356e	0.1045941
244	0xbe27aaa3	-0.16373686
245	0x3e8b6f0a	0.27233154
246	0xbe8ea5bf	-0.2786083
247	0xbe307d82	-0.17235377
248	0x3f3618fd	0.7113188
249	0xbdb955de	-0.09049581
250	0x3ea35934	0.31903994
251	0xbe835233	-0.2564865
252	0xbf299929	-0.6624933
253	0xbe5a01ab	-0.21289699
254	0x3e70e66b	0.23525397
255	0x3e378d03	0.17924885

fc2.weight f4 [1, 300]
0	0x401074bb	2.2571247
1	0xbccb27f5	-0.024799326
2	0x3bc56994	0.006024549
3	0x3fb05197	1.3774899
4	0xbf9993b1	-1.1998197
5	0xbfed22cc	-1.8526244
6	0xbf390a1a	-0.7228104
7	0xbf4802a7	-0.7812905
8	0x3e20a474	0.15687734
9	0x3f8a2abf	1.0794295
10	0x3f0dc4e8	0.5537858
11	0x40038b9d	2.0553963
12	0xc004980a	-2.0717797
13	0xbeb1b9f5	-0.34712186
14	0x3fce91b8	1.613822
15	0xbf63cb42	-0.8898202
16	0x3fa478b6	1.2849338
17	0x3fa441d5	1.283259
18	0x3f309323	0.6897451
19	0x3ea4c34a	0.32180244
20	0xbfad826e	-1.3555429
21	0x4002d3be	2.0441737
22	0xbfce26d3	-1.6105598
23	0x3d44e5fa	0.048070885
24	0xbf5f1647	-0.8714337
25	0x3d1dfba6	0.03857007
26	0x3faea42d	1.3643852
27	0x3fc6e454	1.553843
28	0xbf51fdf8	-0.8202815
29	0xbe59fee8	-0.21288645
30	0xc070ff82	-3.765595
31	0xbfd046e7	-1.6271638
32	0x3cfe3806	0.031032573
33	0xbf5ffd66	-0.8749603
34	0xbf9ef68f	-1.2418994
35	0x3ff42623	1.9074138
36	0xbfb6b043	-1.4272541
37	0xbf5b7ce6	-0.85737455
38	0xbfcce20e	-1.6006486
39	0xbb344058	-0.0027504172
40	0x3cdff45a	0.027338196
41	0x3f0a3b50	0.53996754
42	0xbffaa502	-1.9581606
43	0x3c729088	0.014804967
44	0xbf42177b	-0.7581708
45	0xbf3d6379	-0.7397991
46	0xbfd71ad3	-1.6805061
47	0xbfdd5f60	-1.7294731
48	0xbf63510a	-0.8879553
49	0x3f6e0c20	0.9298725
50	0x3f846c8d	1.0345627
51	0xbfbab12f	-1.4585322
52	0x3ca91bd4	0.020643152
53	0x4014bfaf	2.3241994
54	0xbfd76f5f	-1.6830863
55	0x3ca02f37	0.019553764
56	0x3f75e066	0.9604553
57	0xbfacce57	-1.350047
58	0xc0026067	-2.037134
59	0xbfd89283	-1.6919712
60	0xbfbd846a	-1.4806035
61	0xc000bd43	-2.0115516
62	0xbf8be2eb	-1.0928625
63	0x3f951050	1.1645603
64	0xbffebab2	-1.9900725
65	0xbfe1e1d1	-1.7647039
66	0xbd6a3cdc	-0.057186946
67	0xbf72a0cd	-0.9477661
68	0xbf9f9419	-1.2467071
69	0xbc27fc15	-0.010252972
70	0xbf2029dd	-0.6256388
71	0xbffb1148	-1.9614649
72	0xbf44b48e	-0.76838005
73	0x3f747803	0.95495623
74	0x3eadda8f	0.3395581
75	0xbf98f8c4	-1.1950917
76	0x3fba41aa	1.4551289
77	0x4000f98e	2.0152316
78	0xbff68a3a	-1.9260933
79	0x3fa0d0fc	1.2563777
80	0x3f2adf29	0.66746765
81	0x3fa46e7e	1.284622
82	0x3e4bb954	0.19894916
83	0x3dbe3d49	0.09289033
84	0x3f92fd73	1.1483597
85	0xbfc655af	-1.5494899
86	0x3fb40bbc	1.4066081
87	0xbf6539fa	-0.8954159
88	0x3fb0104e	1.3754976
89	0x3f9b90c5	1.2153555
90	0x3ff6855e	1.925945
91	0xbfcb8317	-1.589938
92	0x3cd1f153	0.025627768
93	0x3ed4545a	0.41470605
94	0xbff034e2	-1.8766139
95	0x3f052e6d	0.52023965
96	0xbfa4f896	-1.2888362
97	0xbfb708b0	-1.4299526
98	0x3f928cd1	1.1449224
99	0x40337a7d	2.804351
100	0xbf9ff7fe	-1.2497556
101	0x3d6b4845	0.05744197
102	0x3fbcbb1f	1.4744605
103	0xbb8fae40	-0.004384786
104	0xbfd0ef2a	-1.6322987
105	0x3e05bb44	0.13059717
106	0x3f0e317d	0.55544263
107	0xbfa24249	-1.2676479
108	0x3f219675	0.63120204
109	0x4013a13a	2.3067155
110	0xbfbee805	-1.4914557
111	0xc0080262	-2.1251454
112	0x3f7ed337	0.9954104
113	0x3ec4d4c5	0.3844358
114	0xc001c9e2	-2.027947
115	0xbf6d7019	-0.9274917
116	0xbfe41c4e	-1.7821138
117	0xbfeac156	-1.8340251
118	0xbd01a481	-0.031651024
119	0xbfff3885	-1.9939123
120	0x3f172fe6	0.5905746
121	0x3b94f28f	0.004545517
122	0xc00c9c81	-2.1970522
123	0xc035246b	-2.8303478
124	0x3f65c42a	0.8975245
125	0xc03774d4	-2.8665056
126	0x3e94974b	0.29021677
127	0xbfe9fed2	-1.828089
128	0xc009336d	-2.1437638
129	0xbfa1fb87	-1.2654885
130	0x3fa0d884	1.2566075
131	0x3f8f165e	1.1178701
132	0xc021deb3	-2.5292175
133	0x3f03deaa	0.51511633
134	0xbf81579e	-1.0104864
135	0x3f3f0093	0.7461025
136	0xbff8cf57	-1.9438275
137	0x3fb8f7c0	1.4450607
138	0x3f7dc798	0.9913268
139	0xbf02c830	-0.5108671
140	0xbf3d66f3	-0.73985213
141	0x3f9cf89f	1.2263373
142	0x3fb69c70	1.4266491
143	0xbefe516e	-0.496715
144	0x40144aaa	2.3170571
145	0xbf99dd8e	-1.2020738
146	0xbf971b8e	-1.1805284
147	0xbf2f1431	-0.68390185
148	0x3d422ec5	0.047407884
149	0x3cd48c68	0.025945857
150	0x3f60cd8c	0.8781364
151	0x3ce5bfe8	0.02804561
152	0x3e0d3f36	0.13793644
153	0x3e3332c8	0.1749984
154	0xc001abe1	-2.0261157
155	0xbf01442d	-0.50494653
156	0x3cdcd57c	0.026957266
157	0xbf42e1dc	-0.76125884
158	0x3dd13e9d	0.10217021
159	0xbcfb029f	-0.030640898
160	0x4014e626	2.3265471
161	0x401ec83e	2.4809718
162	0x3be03d40	0.006843239
163	0xbf9f169f	-1.2428778
164	0x3ce221f9	0.02760409
165	0x3f8e48b3	1.1115936
166	0x3f95d691	1.1706105
167	0x3f914bc8	1.1351252
168	0x3ca8514d	0.02054658
169	0x3f6e2eb4	0.93040013
170	0x3f10ac66	0.5651306
171	0xbfa028d7	-1.2512463
172	0x3f8d3377	1.1031331
173	0xbec5716f	-0.38563105
174	0x3fa05f4d	1.2529083
175	0x3c9faf0c	0.019492649
176	0x3f43c0a4	0.7646582
177	0xbfeb1fa2	-1.8369029
178	0xbfa7deb3	-1.3114837
179	0xbfd2c5c9	-1.6466609
180	0x3f88e8e9	1.0696079
181	0x3cf58167	0.02996893
182	0xbca5f1bb	-0.020256868
183	0xbf82cec7	-1.0219353
184	0x3f06847a	0.52545893
185	0x3fa46b1f	1.2845191
186	0x3e8cd597	0.27506706
187	0x4006bda1	2.105324
188	0x3c9aaac3	0.018880254
189	0xc03281b0	-2.7891655
190	0xbeb1a580	-0.3469658
191	0xb94d4539	-0.00019576111
192	0x3ff5765d	1.9176747
193	0xbfa03024	-1.2514691
194	0xbd3369b3	-0.043801975
195	0x40358f18	2.8368587
196	0xbf9c2c91	-1.22011
197	0xbfef4519	-1.8692962
198	0xbc5c399d	-0.01344147
199	0x3fb06110	1.3779621
200	0xbf80542d	-1.0025688
201	0xbf443ff4	-0.76660085
202	0xbfb2b14b	-1.3960356
203	0xbfc22619	-1.5167876
204	0xbfbb9991	-1.465624
205	0xbe9d0d11	-0.3067403
206	0xc0068345	-2.101762
207	0xbfe6fe43	-1.8046345
208	0x3cbe2889	0.023212688
209	0xbfe20ca2	-1.7660105
210	0x404bf924	3.1870813
211	0x3f0e82a3	0.55668086
212	0xbc527ae0	-0.0128466785
213	0xbf3460e4	-0.70460343
214	0xbfbf54bb	-1.4947733
215	0xbf5d1b70	-0.8636999
216	0x3f91520f	1.1353167
217	0xbfe80fae	-1.8129785
218	0xbfba9eb2	-1.457968
219	0x3fea5d3b	1.8309702
220	0x3f87db5b	1.0613817
221	0xbfc2ea9e	-1.522785
222	0x3f5ec89c	0.87024856
223	0xc0005c94	-2.0056505
224	0x3fb65198	1.424365
225	0x3d407e76	0.046995603
226	0x3f1920e8	0.59815836
227	0x3e10caa4	0.14139801
228	0x3dd3a321	0.10333849
229	0x3f902725	1.1261946
230	0x40143808	2.3159199
231	0xbfa68c3a	-1.3011544
232	0x3f5e343e	0.86798465
233	0x3e3db31c	0.18525356
234	0x3f7849a2	0.96987355
235	0x3f311d98	0.6918578
236	0x3f273088	0.6530843
237	0x4003b781	2.0580752
238	0xbf9f57f6	-1.2448719
239	0xbec6b94f	-0.38813254
240	0x3f6e1413	0.9299938
241	0x402c05a0	2.6878433
242	0xbfe39718	-1.7780485
243	0xc009cdbc	-2.153182
244	0xbfb1b27a	-1.3882592
245	0xbff88043	-1.9414142
246	0xbfb533b1	-1.41564
247	0xbf4ea4cd	-0.80720216
248	0x40055d87	2.0838335
249	0xbf01e6c8	-0.5074277
250	0x3f27db67	0.65569156
251	0xbfb0cd2e	-1.3812616
252	0x3fc7840f	1.5587176
253	0xbfda0539	-1.7032844
254	0xbfc2cb5c	-1.521831
255	0x3faf9c60	1.3719597
