AutoRobotArm/params_actor.pth (torch, 15933 bytes, 4 tensors)

fc1.weight f4 [300, 9]
00000000: bf79 d6be a528 423f 3357 3bbf 46a2 43be
00000010: 021c c4be 07e9 373e 733c b4be 80d3 0b40
00000020: 754a 30bf cbc2 eb3e a8f2 dfbe f820 92be
00000030: 1dbe 1fbe b196 67bd 2c24 44bf 2533 043f
00000040: a996 18bf 0310 e93c 8144 3bbe 84b2 243d
00000050: c297 98be 4341 07be b965 43be a49f 42be
00000060: 2933 88be 63b7 93bd 253b ad3d ae8f 313e
00000070: 70c8 b7bd d6ba 70be 4e9f a3be a65e dabd
00000080: e2f9 1b3e 50b8 ec3c 8025 e7bd b03e ff3c
00000090: 9c9f 04bf 8e96 ebbd 0b67 313e 89dd 05bf
000000a0: 110f 873f 7f5d d43f ccdd 873f 61f3 c23f
000000b0: a5fa a73e 5400 5bbe 113c 97be 2399 5e3e
000000c0: eb54 1f3e 5af4 833e fa8e c03b e04a f6be
000000d0: cf38 5fbf 1672 0fbe c792 08bf bcfd d8bd
000000e0: aba6 23be e695 b43d 56ec 31bc f8b6 b5be
000000f0: 5532 09bf 814d f03e e4fe 7bbd df1f 8ebe
00000100: 486a 043d f0ef 333c 9086 3dbf ae67 9f3e
00000110: 3437 74bf ce27 72be a040 24bf 1216 62be
00000120: 40e5 07bf c387 93bd 9e55 a03c dedd 89be
00000130: c96d 84bf c6de e4bf 9c09 aebf ac00 0bc0
00000140: b14b 81bd 5063 c9be 4e05 30be 6fd6 033e
00000150: ad41 43bf ba4e 7abe f974 46bf 0a57 32bf
00000160: fcb3 f0be 71da 70bd e684 483f 1bba 733d
00000170: 1825 443e c6af a8bd 8eba 8ebe 371c b6bf
00000180: 5ace d33e f56e d1bf 03cd 8bbf 8808 b63e
00000190: c951 283f 6515 cdbe fd04 15bf 7fe5 203f
000001a0: 0e00 82bf a010 773f cbc1 ba3f 7769 8abe
000001b0: 513c 9cbe eb3e f2bc 86a3 953d a910 a7be
000001c0: d43c febd 604c 613e a6a3 1fbd 06fd 3f3e
000001d0: b539 7a3d 3684 093e f745 943e 79da 2abf
000001e0: ae31 67bf 3396 d33e 3a71 6a3e c728 d83f
000001f0: bbde f03f d653 05bf c834 5a3d a96e b9be
00000200: 3a47 283d 02f2 953d f004 28be b08c 23bd
00000210: b0fe 4d3e c3e5 003d a1f8 25be b412 01bf
00000220: 2ba6 36be dc03 8e3d d359 fa3d 9628 2340
00000230: 074a 393d 4743 c83f 700c e13e b312 ccbe
00000240: bd5d b7be 188e a1be 9951 833e 17a2 9fbd
00000250: 3824 9dbe bd1b bfbd ca0c b43b 80c6 933e
00000260: 0f50 413e e64a 14be 3445 67be 9e14 30bf
00000270: 7d2b edbb c2d4 183f fbed 9e3d 0768 1c3f
00000280: 8fb9 893d e76f 26bd 60e5 2fbc dbba 6fbe
00000290: 97c1 98be 1e22 193e 6aac 1a3e 00c6 383d
000002a0: ee4e 65be 408e 953c 20e2 5dbd bea6 37be
000002b0: 5ce5 cbbd 558d 76be 23e4 f5be 4a7f 243f
000002c0: dea2 fe3f 76ce 003f 73ab 1440 988e 93be
000002d0: 6418 85be 6505 05be 539e 923e cded 09be
000002e0: 0ba6 9b3d 5ff3 4b3c 16b0 093e d716 8cbc
000002f0: 1cc6 2d3d 217f e0be 0dcc ddbe 3b41 993e
00000300: 0b83 a53c c58c b43e 11bd d0be 34bb eebe
00000310: 3abd 23bf 40cb ae3b 74d4 8fbd 3eba 41be
00000320: be19 54be 1837 1abe cf11 91be ce09 443e
00000330: 98dd 4e3d 16db fcbd d8fb 3bbe c7c1 84bd
00000340: 1089 f7be 2f5c d63d cfc6 3ebf 3092 18bb
00000350: ff48 643d 9c1a 17bd dabf 103f 132e 45bd
00000360: 31bb dc3e 64ef 603e 84f1 543d 5a87 5dbe
00000370: aea2 cabf d859 473f 01d4 c7bf c016 0b40
00000380: e45c 5ebf 9267 97be 3c1f b7be 5107 b7be
00000390: 233c 6d3e 21ee ae3d ace5 8abe 461d 5abe
000003a0: b4a4 383e 408a 19be c13d 183e cced 4b3e
000003b0: 61b8 2fbf 67bb a6be d172 d7bc 7270 b3be
000003c0: 926a 4a3f 638f 633f dd8e 07be d92b 1cbe
000003d0: 5c72 bdbd a30a f1be 5702 ba3d 7cae 843f
000003e0: 53dc 023e 90d2 003f 27c2 e5be 6b74 36be
000003f0: 2c3b 24bf 033a 0bbd ff0d 53bf a735 e3be
-0.4188976 0.7584327 -0.7317993 -0.19104871 -0.38302618 0.17959987 -0.3520237 2.184784
-0.6886361 0.46047053 -0.4373982 -0.28540778 -0.15599866 -0.056540195 -0.76617694 0.5164054
-0.5960489 0.028450018 -0.18287851 0.04020931 -0.29803282 -0.13208489 -0.19081773 -0.1900621
-0.26601532 -0.072127126 0.084585465 0.17339966 -0.08973777 -0.23508772 -0.31957477 -0.10662584
0.15232041 0.02889648 -0.112864494 0.031157821 -0.51806045 -0.115033254 0.17324464 -0.5229116
1.0551473 1.6591033 1.0614562 1.5230523 0.32808414 -0.21386844 -0.29538015 0.21738105
0.15559737 0.25772363 0.005876419 -0.48104 -0.8719606 -0.14008364 -0.53348964 -0.10595271
-0.15981548 0.08817653 -0.01085957 -0.35491157 -0.53592426 0.4693413 -0.06152238 -0.2775869
0.03232792 0.0109824985 -0.7403345 0.3113379 -0.95396733 -0.23647997 -0.6416111 -0.22078732
-0.5308418 -0.07203629 0.019572075 -0.26927084 -1.0346004 -1.7880485 -1.3596683 -2.171916
-0.06313265 -0.39333582 -0.17189524 0.12874769 -0.7627209 -0.24444094 -0.77522236 -0.6966406
-0.47012317 -0.058802072 0.78327787 0.059503656 0.19154775 -0.08236651 -0.27876705 -1.422736
0.4136837 -1.6361986 -1.092194 0.35553384 0.65749794 -0.40055385 -0.58210737 0.62850183
-1.0156267 0.9650974 1.4590391 -0.27033588 -0.30514768 -0.029571017 0.0730658 -0.32629898
-0.12413946 0.22001791 -0.038974427 0.18748865 0.06109019 0.1342934 0.2895963 -0.6673961
-0.9031018 0.4132553 0.22894755 1.6887444 1.8817972 -0.5208105 0.053272992 -0.3621724
0.041083552 0.0732155 -0.16408134 -0.039929092 0.20116687 0.031469118 -0.16208126 -0.50419164
-0.17836826 0.0693433 0.12224164 2.5493522 0.045236614 1.5645531 0.43954802 -0.39858016
-0.35813704 -0.3155372 0.25648192 -0.07794588 -0.30691695 -0.093314625 0.0054946886 0.2886238
0.18878196 -0.14481696 -0.22584993 -0.6878146 -0.00723785 0.5969964 0.07760235 0.61096233
0.067248456 -0.040634062 -0.01073584 -0.23411123 -0.29835197 0.14954421 0.15104833 0.045110703
-0.2239339 0.018256307 -0.054170728 -0.17934701 -0.09955856 -0.24077351 -0.48025617 0.6425673
1.9893453 0.50315034 2.3229644 -0.28819728 -0.2599517 -0.12990339 0.28636417 -0.1346962
0.076000296 0.012448161 0.13446078 -0.017100735 0.04242526 -0.43846992 -0.4331974 0.2993258
0.020204088 0.3526365 -0.40769246 -0.466272 -0.6396061 0.005334288 -0.07022944 -0.18918702
-0.20712945 -0.15060079 -0.283339 0.19144365 0.050504297 -0.12346475 -0.1835779 -0.064822726
-0.48346758 0.104668014 -0.7452211 -0.0023280494 0.055733677 -0.03689061 0.5654274 -0.048139643
0.43111566 0.2196632 0.05198814 -0.21633664 -1.5830896 0.77871466 -1.5611573 2.1732635
-0.8686049 -0.29571205 -0.35766017 -0.3574777 0.23167472 0.08541513 -0.2712835 -0.2130023
0.1803158 -0.14994144 0.14867307 0.19914931 -0.68640715 -0.32564852 -0.026299866 -0.35046726
0.79068863 0.88890666 -0.13238092 -0.15251102 -0.09250328 -0.47078428 0.090824775 1.0365748
0.1277936 0.5032129 -0.4487469 -0.17817847 -0.6415279 -0.03399087 -0.8244323 -0.4437687

fc1.bias f4 [300]
00000000: 5eab e1bd 5240 32bf 59f6 26be a81f 0fbe
00000010: c151 d5be e918 65bf b798 13bd 5c57 c8be
00000020: 13b2 7cbe f0cc 90be 2b5e 13bf 9b8f d4be
00000030: c14e 28be b0a5 503f a765 30be 3dfb 1ebf
00000040: 87e8 1fbe 2bb0 49bf 2047 593c ebac 55bf
00000050: ff72 83be 80de b6be 8060 4cbc 87e1 cabe
00000060: 0d6e 6cbf dcdf 443e bbf3 56bf 1379 3fbf
00000070: 79fc d4be 8b52 713e 64cd 263f 9696 d33c
00000080: 0cac 1abf 7c3c 99bd 0b89 a5bd 6014 35bb
00000090: e139 96be 1f0f 3cbd 9e29 07be d138 1abf
000000a0: c6b3 94bd a950 c8be fe0e 953e 3240 0cbe
000000b0: 630d c3bd 20cb 6d3c ae4f ffbc 6765 d5be
000000c0: fabb b8be 8cfc 01bf a075 9dbe 3a1f 963d
000000d0: f8bb 8fbe 9b92 cdbe 6b45 6dbd c965 2cbf
000000e0: 55e8 e4be 9532 bcbe 32b9 9b3b f99d 94bf
000000f0: b360 4dbf a548 1ebf 9a26 95be b8f3 71bd
00000100: dfd9 7dbd 2828 78be e96d 83be fef5 42be
00000110: 3c58 acbd 57b3 e73e 260e 1fbe 03d6 3dbe
00000120: 6785 1fbe 93a7 fabe 4266 403e eaf5 b3be
00000130: 16e8 a9bd 107e 283d bc3b d33d 7497 f3bd
00000140: a965 8c3e 6ffa 22be c985 8a3d bf65 c3bd
00000150: f299 0fbf cbc4 efbe 47c9 80be 06d1 a6be
00000160: cf3f 2bbf a1e1 153e 9f20 0d3e 9ade 293e
00000170: f2fb 9fbe 5a63 bdbe 6a7f 30bf 40ba 2abe
00000180: 7a0c e3bc 8c12 c6bd f4b9 e0be db7a 4fbd
00000190: d993 8cbe d80f a7be 6d01 c5be 0894 64bd
000001a0: e22d 6dbe 80e3 bebe 93ff a0bd 0c7f f7bd
000001b0: 6a3b bcbd c519 f5bd 2000 8cbd 099b b4be
000001c0: d862 8abe 1505 d6be 2c38 85bf 638f 8bbe
000001d0: 78a8 d7be 237b c03c 82c5 19bc 5598 45be
000001e0: 7016 19bf 8066 4ebe 9813 27be 9d16 dabe
000001f0: 7543 d7bd 260a 14be 890e ffbd da2e 6ebe
00000200: bdc8 29be 0e83 33be 511f 2ebf 272d 1abf
00000210: 61e9 23be 6841 5e3d 604f 49bd baed e5bc
00000220: d98c 5abd f2fd e9bc 8165 80be 1a7c 9c3e
00000230: 3d3d 91be 0f4b 78be 09f9 e0be ff66 d0be
00000240: 80f7 42be eda5 94be 83e9 73be 501d 01bf
00000250: b36b 18bf c26b 70bf 6a42 46bf a10d 353f
00000260: 8954 15bf 5345 033f 8bf3 b9be a55d ef3d
00000270: 02d1 20bf 78a4 35be 612f d9be 833d 9bbe
00000280: d3b5 7fbd 12d7 c4bd f6ef 23be 3a42 ffbd
00000290: d54f bfbe a381 2dbe 6e29 0fbf 0993 4f3f
000002a0: 0749 c1bd ebe8 99bd 64d6 dbbe a5c2 033f
000002b0: 3529 f7be e8f7 1bbd 4378 75be c79e 05bf
000002c0: acd9 113f fe71 a23c cef7 50be e7f4 9cbe
000002d0: aed0 893e 26ee 9a3e f5ff 04bf 52ae c1bd
000002e0: 457d c4be a9a6 47be 960b d03d 83af bebd
000002f0: 808c 60bb 0c23 2c3f 448b dcbe db0f 3ebf
00000300: 98f6 043f fb64 77bf e0ba 8d3c e380 34bf
00000310: c37b a1be 5953 34bd f332 57bf 1a33 5a3d
00000320: 1c8b d1be d8a7 863d 0e5c fcbe 7055 a0be
00000330: cfa9 f2be 009d 3abe ce42 313e ca5e 263d
00000340: f8f8 373c db5d 23bf 7c16 ccbe 4327 15bf
00000350: 8727 82be 5cc3 14bf b1f0 943d bb70 64be
00000360: 6685 0d3c f3ae a53e 44ea a8be cd9e 94bd
00000370: 1ac7 dabe cfd2 f1be 2606 74be 5048 37be
00000380: 8151 a1be 4f31 c7be 1565 0abf 7c2b a1be
00000390: 531e c5be a228 8abe 4ac0 23bf e515 8cbe
000003a0: 3e7d aebe fb3c 89be 3c97 a6be fb29 463e
000003b0: 6688 5cbe 1baa d8bd a0bc c5be 638f db3e
000003c0: c29c 82bf 58fd 14be e6a3 5ebd e74e f6be
000003d0: b467 a9be e7ea 38be 4e13 863c 8da1 d6be
000003e0: 288b 86be 5477 cabe f449 31bf 3669 7abe
000003f0: 8245 0c3d 3064 2abd 3119 31bd 65df d3be
-0.11019014 -0.69629395 -0.16304912 -0.1397692 -0.41663936 -0.89491135 -0.036034312 -0.3912915
-0.24677305 -0.28281355 -0.57565564 -0.41515812 -0.16436292 0.8150282 -0.17226277 -0.6210211
-0.15616046 -0.78784436 0.013261586 -0.83466977 -0.25673673 -0.3571663 -0.012474179 -0.3962519
-0.92355424 0.1922602 -0.83965653 -0.7479412 -0.4159887 0.23566644 0.6515715 0.02582864
-0.6041877 -0.074822396 -0.080827795 -0.0027630553 -0.29341033 -0.045912858 -0.1319947 -0.60242945
-0.072608516 -0.3912404 0.29113 -0.13696364 -0.09524038 0.014513761 -0.031165924 -0.41678926
-0.36080915 -0.5077598 -0.30753803 0.07330175 -0.28073096 -0.40150914 -0.05792753 -0.6734281
-0.44708505 -0.3675734 0.0047523016 -1.161071 -0.80225676 -0.61829597 -0.29131013 -0.05907032
-0.061975356 -0.24234068 -0.25669792 -0.19039151 -0.08415267 0.45254013 -0.15532741 -0.1853867
-0.15578233 -0.48955974 0.18789008 -0.35148555 -0.0829622 0.041135848 0.10314128 -0.11894122
0.2742131 -0.15915845 0.06763799 -0.09540891 -0.56094277 -0.4682983 -0.25153562 -0.32581347
-0.6689424 0.14636852 0.13781975 0.16588822 -0.31246907 -0.36989862 -0.6894442 -0.16672611
-0.02771591 -0.09671506 -0.4389187 -0.050654273 -0.2745655 -0.32629275 -0.3847765 -0.055805236
-0.23162034 -0.37282944 -0.07861247 -0.12084779 -0.0919102 -0.11967806 -0.06835961 -0.35274532
-0.27028537 -0.41800752 -1.0407767 -0.27257833 -0.4212072 0.023496216 -0.009385468 -0.19296391
-0.5979986 -0.20156288 -0.16316068 -0.42595378 -0.10510913 -0.14456996 -0.12453944 -0.2326006
-0.16580482 -0.17530462 -0.68016535 -0.60225147 -0.16006996 0.054261595 -0.049147964 -0.028067458
-0.05335698 -0.028563473 -0.2507744 0.30563432 -0.28367034 -0.24247383 -0.4394 -0.4070358
-0.19039726 -0.2903284 -0.23819546 -0.5043535 -0.59539336 -0.93914425 -0.7744509 0.7072392
-0.58332115 0.51277655 -0.3631862 0.11687783 -0.6281892 -0.17738521 -0.4241896 -0.30320367
-0.06242926 -0.09611334 -0.16009507 -0.124638036 -0.37365595 -0.16943984 -0.5592259 0.8108373
-0.09437757 -0.07515129 -0.42937005 0.5146888 -0.48273626 -0.03807822 -0.23971657 -0.521954
0.56972766 0.019829746 -0.2040703 -0.30655596 0.26917022 0.30259818 -0.5195306 -0.09457077
-0.38376823 -0.1949717 0.1015846 -0.0931082 -0.0034263432 0.6724098 -0.43075 -0.74242944
0.5193877 -0.9663846 0.017301023 -0.70509166 -0.31539735 -0.0440248 -0.8406212 0.05327139
-0.40926445 0.065749824 -0.49288982 -0.31315184 -0.4739518 -0.18223953 0.1731064 0.04061774
0.011228792 -0.6381509 -0.39860904 -0.58263034 -0.25420782 -0.58110595 0.07272471 -0.22308628
0.008637762 0.32360038 -0.3299123 -0.07256851 -0.42730027 -0.47231147 -0.2383047 -0.17898679
-0.31507495 -0.38904807 -0.5406049 -0.31478488 -0.38499698 -0.26984125 -0.63965285 -0.27360454
-0.34079927 -0.26804337 -0.32537258 0.19351952 -0.21536407 -0.1057932 -0.38620472 0.42882833
-1.0204089 -0.14549768 -0.054355524 -0.48107073 -0.33086932 -0.18058358 0.016366627 -0.41920128
-0.26278043 -0.39544165 -0.6925347 -0.24454197 0.034245975 -0.041599452 -0.043236915 -0.41381374

fc2.weight f4 [2, 300]
00000000: 3fb4 4cc0 ef7b 2c3e 5a5d 42bc 81dd 66bd
00000010: d278 973f 529c 3b3e 6cba e8be c5b6 56bf
00000020: 57af e9bf 9657 52be c4da 06c0 2bff e43f
00000030: f5e2 f0bd c864 1540 e632 98bc 4184 c3be
00000040: 9467 a13d 0b94 9abf 58fb 20bd 8d49 333e
00000050: 942f 923c 8073 f5be 0640 afbc 28c4 10bf
00000060: 80d4 2740 80bd 09bd 3b96 1440 82a4 76bf
00000070: ba90 6abe a2ef 353c 809f 30c0 55e6 a0bc
00000080: b0d3 07bf 50bb 46bd 965a 853f 29fb 58c0
00000090: 9fb7 b23d 7296 4f3e b692 513d ea10 2ec0
000000a0: 0b4b b43f 4e3d 9fbc c257 e83f 92d6 773d
000000b0: ba90 153d 4f66 47bd b817 36c0 7e79 cdbf
000000c0: cd5c 90be e85d 5440 3b32 3540 1474 f83f
000000d0: 7ca2 e33f 08b4 51bf f903 8bbe f747 1fbf
000000e0: ef27 2c3d 85a7 943f e079 8dbf 507b af3f
000000f0: afa5 e53f a825 d13f 2922 3abe 7b78 56bd
00000100: 96d9 25bf 70e2 663c 65fd 853e d5d6 42bd
00000110: 738b 183e 39db 94be 3011 7b3c 4957 073f
00000120: 8e0b 80bf 10a1 9b3c 3e52 d73f 5d9e 0bc0
00000130: dcd0 0e3f 7209 6940 c84a 51bd 9f97 3ac0
00000140: 425a 0c3d eda5 9bbf 6a7e b9bf b96a 45bc
00000150: b3a3 49bf 8213 413f 8d6b 3ebd ccb9 7e3f
00000160: 43fe 323f 9163 1b40 d3e5 64c0 6847 dabc
00000170: f037 2e3c dad9 b93f f5e8 febe a039 09be
00000180: 7fce 5040 cd43 583c 2f23 af3f dbe3 acbc
00000190: 0973 cc3c e036 4abd e9b3 e8bd ee58 3cbd
000001a0: 457a 843d 7851 f33f a6f1 e93c f27b 0fc0
000001b0: a375 07be 6450 ffbd 0d24 a73f 3ea5 513f
000001c0: a4c0 3cbc 9e8f 4dbd 0ad7 643e ce1a c8bf
000001d0: 44fc c2bf 6eef d3bd d00e bebd eafe 49bd
000001e0: d136 f9be 30fc 1c3c 3caa e5bc 92c0 3040
000001f0: dc60 f33d 0069 c23c ae3b 6dbd 4801 13c0
00000200: a8ee 743f aa5a 40bd 84c9 1ec0 32e0 af3f
00000210: 5bc2 61bf 2c1f 5a40 669f 69bf 72cd d4bf
00000220: bc6f 34bf 0c9f 853f f9ef da3c 490a df3f
00000230: 4bd6 263d 94c4 d7be b296 50be fa68 463f
00000240: 0a68 5f3d 358e 203f cf7f 32bf b06a b33f
00000250: 50ef 2040 c227 5bbf 28fa 64c0 d876 f33f
00000260: 483d 2d3f ee05 25c0 ab41 81bf 57ae 6c3c
00000270: e961 e8bf 7f3a d03c 9acb d3bd d7a0 8fbf
00000280: 1005 b3bf 5884 0040 e76e 22bd 66bb 9b3d
00000290: 9c23 0e3d d1dc 34bd 5bb8 0bbf 74bf 8ec0
000002a0: 7ac3 52bc 313b fc3d 9f43 b9bf db54 8bc0
000002b0: 5766 4f40 dc7d 693e 1654 673d 84d1 14bf
000002c0: 8c3a bc3f 04f0 973f 5e66 b2bc cc37 05bc
000002d0: f222 75bf 59ee b4be cb74 2b3d 82ee d7be
000002e0: e687 c3bf 9aff 0dc0 731e 0e3d eb91 58bf
000002f0: 54e7 09bc 4d31 a13f 1595 b2bf 7635 08bf
00000300: 0839 06bf 071b bf3f f5dc 9abc 35a5 31c0
00000310: f077 2abc 7f86 313f 9251 2040 c07e bfbe
00000320: d6c7 203f 9319 d6bf dcfc ad3d 80bb c339
00000330: 88ef 38bf c471 823c e456 98c0 a1cd 61c0
00000340: b3c6 44bf 791a b1be 349c 2ebe eeac 03c0
00000350: 52a2 453d c116 1f40 07b9 00c0 3766 64bd
00000360: f779 d5be e194 023e 8daf 1abf 5ada 31bd
00000370: a9b1 933e fd6f 493f ecb6 e8be 7918 97bf
00000380: 71bb 1540 069c 45c0 3c84 2bbf e029 df3f
00000390: d901 2dc0 2261 cb3f bdcb a0bf 4a96 32be
000003a0: 62c4 8f3b 3969 7e3f e8a7 bb3c 64ea 0dc0
000003b0: 61d6 2bbe e2e2 29bd 5fa9 3240 26fb de3f
000003c0: dd6d 853f 26be 5ebd 6fe8 e33c 0d72 65bf
000003d0: 6862 673c f700 063f 7695 893c cef5 82be
000003e0: d596 3d3d caff ecbe dac7 d53f f5c9 eebe
000003f0: 0948 3d3e d130 9c3f 754a 093c 260d a4bf
-3.1985013 0.16844152 -0.011863077 -0.056363586 1.1833746 0.1832135 -0.4545473 -0.83872634
-1.8256634 -0.20541224 -2.1071024 1.7890371 -0.117620386 2.3342762 -0.018578958 -0.3818684
0.07881084 -1.2076429 -0.0393022 0.17508526 0.017844953 -0.47939682 -0.021392833 -0.5654931
2.622345 -0.033627987 2.3216693 -0.9634477 -0.22906771 0.011104496 -2.759735 -0.01964108
-0.53057384 -0.04851848 1.041827 -3.3903296 0.08726429 0.20272234 0.051165305 -2.7197824
1.4085401 -0.019438412 1.8151782 0.060507365 0.036514975 -0.048681553 -2.8451977 -1.6052701
-0.281958 3.3182316 2.8311908 1.9410424 1.7783961 -0.8191533 -0.27151468 -0.62219185
0.04203027 1.1613623 -1.1052818 1.3709507 1.7941188 1.6339617 -0.18177094 -0.052360993
-0.64785135 0.014092073 0.26169887 -0.04756816 0.14896946 -0.29073504 0.015323922 0.5286756
-1.0003526 0.018997699 1.6821973 -2.1815407 0.55787444 3.6412015 -0.051096708 -2.9155042
0.034265764 -1.2160012 -1.4491704 -0.01204937 -0.7876541 0.7542039 -0.046489287 0.99502254
0.6991922 2.427952 -3.5765274 -0.026645377 0.010633454 1.4519608 -0.49787107 -0.13400888
3.2626035 0.013199759 1.3682612 -0.021104744 0.024957197 -0.04936874 -0.1136244 -0.045983247
0.064686336 1.9009237 0.02855761 -2.24194 -0.13228469 -0.12466505 1.3057877 0.81892765
-0.0115205385 -0.050185792 0.22347656 -1.563318 -1.5233235 -0.10348402 -0.09280169 -0.04931537
-0.48674634 0.009581611 -0.028035276 2.7617536 0.11883709 0.023731709 -0.057918243 -2.2969532
0.9567666 -0.046961464 -2.4810495 1.3740294 -0.8818719 3.4081526 -0.9125885 -1.6625197
-0.70482993 1.0439162 0.026725756 1.7425014 0.04073171 -0.42142165 -0.20369986 0.7750393
0.05454258 0.6271699 -0.6972627 1.4016933 2.5146065 -0.8560754 -3.5777683 1.9020643
0.6767163 -2.578487 -1.0098165 0.014445863 -1.815488 0.025418518 -0.10341568 -1.122096
-1.398592 2.0080776 -0.039656546 0.07604103 0.03470193 -0.0441559 -0.5457818 -4.4608707
-0.012863988 0.12315977 -1.4473761 -4.3541083 3.2406213 0.22801918 0.056476675 -0.58132195
1.4705367 1.1870122 -0.021777328 -0.008130979 -0.9575645 -0.35338095 0.04185943 -0.42174155
-1.5275848 -2.2187257 0.034697007 -0.84597653 -0.008416969 1.259317 -1.3951746 -0.53206575
-0.5243077 1.4930123 -0.018904189 -2.7757084 -0.010404572 0.6934585 2.5049787 -0.3740139
0.62804925 -1.6726555 0.08495495 0.00037332997 -0.72240496 0.015923388 -4.760607 -3.5281756
-0.7686569 -0.3459051 -0.17051774 -2.0574298 0.048250504 2.4857638 -2.0112932 -0.055761542
-0.41694614 0.12752105 -0.6042412 -0.043421127 0.2884648 0.78686506 -0.45452058 -1.1804343
2.3395655 -3.087648 -0.6699865 1.7434654 -2.7032378 1.5889018 -1.2562176 -0.17440143
0.0043874243 0.9937931 0.022907212 -2.217431 -0.16780998 -0.041476138 2.7915876 1.7420394
1.0424153 -0.05438056 0.027820794 -0.8962715 0.014122583 0.5234522 0.016794901 -0.2557816
0.046286423 -0.46288902 1.6701615 -0.46638456 0.1848451 1.2202398 0.008379568 -1.2816513

fc2.bias f4 [2]
00000000: bcb4 a3bd fbd3 103d
-0.07993457 0.03535841
