AutoRobotArm/params_actor.pth (torch_old, 15195 bytes, 4 tensors)

fc1.weight f4 [300, 9]
000000 08 dc 1b be 3c 27 6b bf 24 db 47 3e 23 ee e5 bd
       -0.15220654 -0.9185674 0.1951719 -0.112270616
000010 f6 55 d3 3f 2d 9d 8c 3f 17 f0 c3 3f 82 84 1e 3f
       1.6510608 1.0985466 1.5307645 0.6192094
000020 e9 04 8d be 06 13 b5 be 24 1c d0 bd 31 d6 b7 bf
       -0.2754281 -0.35366076 -0.101616174 -1.4362241
000030 1b 0e ea 3d 5c 6a 10 bf 6b 04 5f be 11 65 37 3f
       0.11428472 -0.5641229 -0.21779029 0.7163859
000040 c0 23 a9 be e5 6e 25 bf 70 50 ce bd 50 97 05 bf
       -0.33035088 -0.64622337 -0.10073936 -0.5218401
000050 bb a5 a5 3d 55 eb d3 bc 5a 82 22 bd 1d 1d 7b be
       0.08088251 -0.025869051 -0.039675094 -0.24522825
000060 bd c4 9f be 36 ae 3e be e9 7f 52 3e ed 4b 66 3e
       -0.31204787 -0.18621144 0.20556606 0.22489901
000070 9d 59 e1 3e e6 77 4f bf 40 e5 1b be 10 c9 04 be
       0.44013682 -0.81042325 -0.1522417 -0.12967324
000080 aa 1c 4b 3f 8b 0a 47 3f 8e 6c e5 3f 1e 63 dd be
       0.7934061 0.7775046 1.7923753 -0.43239683
000090 a9 15 8b 3e ef 49 83 3d 92 a4 97 be 4a 6e 41 bf
       0.27164963 0.06410586 -0.29617745 -0.7555891
0000a0 51 82 9f be f0 a2 73 3f ee 86 0f 3f 3e ba 25 40
       -0.3115411 0.951705 0.5606526 2.5894923
0000b0 91 b4 28 bf 22 cb 89 bf 59 16 cd 3d 70 ed 80 bf
       -0.6590052 -1.0765116 0.10014028 -1.007246
0000c0 f7 7e 2f 3d 26 e5 da 3e 97 3e 60 3f 02 4e 17 bf
       0.042845692 0.4275295 0.87595505 -0.59103405
0000d0 df 5c 0d 3f a1 57 21 bf 9d fa 6c bd 5f d5 cb be
       0.55219835 -0.63024336 -0.05785619 -0.39811227
0000e0 82 92 f4 3e a7 1f 27 be ec c4 9e 3f 04 a9 26 3f
       0.47768027 -0.16320668 1.2403846 0.6510165
0000f0 29 26 76 3f 0f 09 76 3f 32 3e 03 bf d7 76 8d be
       0.9615198 0.9610757 -0.5126678 -0.2762973
000100 c9 dc 93 3e a3 3f a5 be d9 a4 04 be 5e c4 90 3e
       0.28879383 -0.32275113 -0.1295351 0.28274816
000110 72 46 56 bd 58 8a 56 bd 57 45 11 be d6 9d f1 bd
       -0.052313276 -0.05237803 -0.14186607 -0.11797683
000120 71 0e a6 be 7d 20 61 be bc d6 16 bf 3f 99 5e 3d
       -0.32432893 -0.2198505 -0.5892141 0.054345366
000130 58 ce 90 3e 57 36 dc 3f 13 31 21 40 9c 5f c9 3f
       0.28282428 1.7204083 2.5186203 1.5732303
000140 15 ca 43 3e 40 f3 00 bd 88 5c 4a be 4b b6 98 be
       0.19120057 -0.03148198 -0.1976186 -0.29826578
000150 a6 e1 4e be c0 ea 46 be 13 fc 99 3e 40 e2 b5 bc
       -0.20203266 -0.19425488 0.3007513 -0.022202611
000160 2e 91 66 3e f0 ba cf 3d 41 30 13 3e b3 fd 2c be
       0.22516319 0.101430774 0.14373876 -0.16893654
000170 bd b3 8b be db b7 04 be 38 fb b8 3e 2f 60 09 be
       -0.27285567 -0.1296076 0.36129165 -0.13415597
000180 c8 2b 80 3e 2d 4f 30 3e 82 3e 26 be 32 47 88 3e
       0.25033402 0.17217703 -0.16234782 0.26616818
000190 dd 85 58 be 12 79 1f 3d d4 79 17 bc ec 06 8e bf
       -0.21144815 0.03893382 -0.009245355 -1.1095862
0001a0 5e e1 9f 3f 97 13 aa bd cf cc 42 40 aa f1 d1 be
       1.2490652 -0.08304518 3.0437505 -0.41004688
0001b0 d5 ea cd be 84 32 59 be be 08 6f be 35 83 17 bf
       -0.40218225 -0.21210676 -0.23343179 -0.5918458
0001c0 07 d5 ae 3e d4 2a 97 bf 46 d5 e8 bf b5 44 b7 bf
       0.34146902 -1.1809945 -1.8190086 -1.4317843
0001d0 42 c0 62 bf 6c e4 b7 be c0 11 ec 3e 9a 9e f3 3c
       -0.8857461 -0.3591646 0.46107292 0.029738713
0001e0 2c cb 10 3e a3 b7 82 3e 88 25 c4 bf 23 0f f4 3f
       0.14140004 0.2553073 -1.5323954 1.9067119
0001f0 cd c2 dd bf 9d 98 22 bf 1d 34 3d 3d 73 e6 40 bf
       -1.7325073 -0.6351412 0.046192277 -0.7535164
000200 20 e7 4a bc be fa 70 bf f5 b7 07 bf 9f ec 20 bf
       -0.012384206 -0.941326 -0.5301507 -0.62861055
000210 3f d6 cd be 23 2b da be 5a d9 c2 be f3 ab e7 3e
       -0.4020252 -0.42611036 -0.3805645 0.45248374
000220 ad 08 f4 be 30 fa 21 3e 95 fd c4 bf ba 8e 9b 3e
       -0.4766287 0.15818095 -1.5389887 0.3038233
000230 d7 a2 23 bd db 35 80 3f 67 02 fb 3f 4b ad 58 bf
       -0.039950218 1.0016435 1.9610108 -0.84639424
000240 10 7d 98 be 40 57 9a be 43 a5 31 be d0 3e 76 be
       -0.29782915 -0.3014469 -0.17348199 -0.24047399
000250 56 07 4b 3b ce 1f 4a be 0b a1 8b be 03 4e 53 3e
       0.0030979714 -0.19738695 -0.27271304 0.20635228
000260 08 e3 08 3e 6a 14 d9 be f3 a3 05 bf de 74 ec 3e
       0.13367856 -0.42398387 -0.5220329 0.46182913
000270 a1 bd 78 3e 2b 50 2c 3f 59 15 0f bf 1f a6 5c 3e
       0.24291088 0.67309827 -0.5589195 0.21547745
000280 e2 b2 e7 bf bb 29 d5 bd 2d b3 aa be 2b 6d 6b bd
       -1.8101466 -0.1040835 -0.33339825 -0.057477158
000290 88 a3 28 3e 85 64 d0 bb 7b 92 90 be f2 a8 2d be
       0.16468632 -0.006359639 -0.28236756 -0.16958979
0002a0 67 6e 1e be a3 ff 5d be 66 cf 8e 3e b3 9a ca be
       -0.15471803 -0.21679549 0.27892607 -0.3957115
0002b0 eb 41 2b 3f 29 47 29 be 4c 30 c7 be 5e 91 5b 3f
       0.6689746 -0.16531052 -0.38904035 0.8576869
0002c0 98 32 45 3f 2a 9f 41 3f d1 52 c8 3f dd 76 d2 be
       0.77030325 0.7563349 1.5650274 -0.4110631
0002d0 3c 91 53 be 74 69 e4 3e 81 05 39 3c 81 b2 80 bd
       -0.20660871 0.44611704 0.011292816 -0.06284047
0002e0 08 0d 18 3d 6c 18 af bf 6e 86 1f 3e 1d 85 09 c0
       0.037121803 -1.3679328 0.15578625 -2.1487496
0002f0 4c 5b 04 bf c9 30 0a 3d 25 b8 81 3e 43 ac 63 3e
       -0.5170181 0.03373793 0.25335804 0.22233681
000300 4b f7 49 bf b9 b9 01 bf 89 92 1f bf 1b 93 e0 bf
       -0.78892964 -0.50674015 -0.6233297 -1.7544893
000310 86 c8 a7 3f 01 fa 22 bf 9a c2 0d bf 80 7e 9a 3e
       1.310807 -0.63662726 -0.55375063 0.30174637
000320 36 0e 4e bf c2 fb 15 bf 8e 90 8b 3f c6 b5 7e bf
       -0.80490434 -0.58587277 1.090349 -0.99496114
000330 0a 5d bf 3f b9 39 2e bf 8b 04 49 be 44 18 5f bf
       1.4950268 -0.6805683 -0.1963064 -0.871464
000340 51 81 f4 3d 91 f9 1f be aa 0c a4 bd 77 db a5 be
       0.11938728 -0.15622546 -0.08010228 -0.32394
000350 3a 6f b3 3f 96 e2 07 c0 9d ca 11 40 5f 97 bb 3e
       1.4018319 -2.1232047 2.2779915 0.36638924
000360 81 4c 43 bd 04 3a 8d 3d ff 7f 34 bf 62 6f ff 3e
       -0.04768038 0.06895831 -0.70507807 0.49889666
000370 41 50 91 3e 9b 43 5a bf 01 c9 0c 40 f8 7e 33 bf
       0.2838154 -0.8525941 2.1997683 -0.70115614
000380 43 c2 47 bf 0f 27 dc 3e 0d 3c 68 be f1 8f 35 bf
       -0.78030795 0.4299855 -0.22679158 -0.7092276
000390 a3 c3 21 be f5 99 80 be dd 21 2b bf 3d 71 cc 3f
       -0.15797286 -0.2511746 -0.66848546 1.5972058
0003a0 77 63 a6 bf 2c ae 72 bf 86 68 07 3e a7 13 2e bf
       -1.2999104 -0.94797015 0.13223466 -0.6799874
0003b0 7e 96 27 bd c1 b8 9e bf dd 96 3b bf e1 5c ea be
       -0.040915005 -1.2400132 -0.73277074 -0.45773986
0003c0 12 c4 47 be 67 1c 09 bf b0 87 f6 bd 13 0e 3a bf
       -0.19508389 -0.53558964 -0.12037599 -0.72677726
0003d0 72 87 fc 3c c1 45 2e bf b7 be 42 3e ed 66 a8 bf
       0.030826304 -0.68075186 0.19018064 -1.315641
0003e0 d9 bf 8c bd 97 36 ba bf f8 ea db be 31 f0 39 bf
       -0.068725295 -1.454791 -0.42952704 -0.7263213
0003f0 ba ed 63 3e 1e ca 06 bf cd 3d 26 bd b2 ba 14 be
       0.22258654 -0.52652156 -0.04058628 -0.14524344

fc1.bias f4 [300]
000000 15 d9 96 3d 5b 46 b3 be c7 28 25 be 0c 45 a8 be
       0.07365624 -0.35014614 -0.16128837 -0.3286518
000010 0d d8 8f 3c cb f5 52 be 89 e4 d8 bd 6a 91 8f be
       0.017559076 -0.20601575 -0.105904646 -0.2804063
000020 e3 c1 30 3d 1c 7a a7 be 7c 1e b6 be 86 c3 32 bd
       0.043153655 -0.3271035 -0.35570133 -0.043643497
000030 47 dd ef bd 7f 81 cb be 8e 36 8e be f8 0b 00 bf
       -0.11712127 -0.39747235 -0.27775997 -0.5001826
000040 f2 8f 87 be fd b7 f7 be e6 3c ae be e6 0a 06 3e
       -0.2647701 -0.4838256 -0.34030837 0.13090095
000050 87 68 5d 3e e8 92 19 3e 8e c1 32 3e 05 cc 76 3e
       0.21621905 0.14997447 0.17456648 0.24101265
000060 d2 a6 62 bb 47 ec c5 3d 9b 6d 9c be 4a ae cc 3e
       -0.0034584296 0.09664207 -0.30552372 0.39976722
000070 28 6e c9 be c6 47 9c be dd 0b a0 3d 95 2a ce be
       -0.39341855 -0.3052351 0.07814763 -0.40266863
000080 9e d3 10 3f f8 3b 76 3e 0f 2b ea be 1b 49 71 be
       0.565729 0.24046314 -0.45735976 -0.23563044
000090 78 6a 88 bd 79 87 f5 be 9b 45 c7 3d db 08 28 3e
       -0.06660932 -0.4795492 0.09730073 0.16409628
0000a0 21 1e 56 be 7e a9 75 3d 38 2e cb bc e2 70 0c be
       -0.20909931 0.059976093 -0.024802312 -0.13714936
0000b0 20 51 13 3d 84 4b 5e be dc e5 a5 bf bf 91 d6 be
       0.03596604 -0.21708494 -1.2960773 -0.4190807
0000c0 e8 1d 85 be 9c d0 9f be 02 00 10 3d 5f c9 6f 3d
       -0.2599938 -0.31213844 0.035156257 0.05854165
0000d0 5e 0c 3e be 60 b6 be be 2b ba 64 be f6 3f 61 be
       -0.18559405 -0.37248516 -0.22336642 -0.21997055
0000e0 99 bb b7 be ca 6d 29 bf 77 d0 7d bd 83 93 0b be
       -0.35885313 -0.6618315 -0.061966386 -0.1363049
0000f0 24 c1 a3 be 36 ba 0d bf b5 d5 63 be 4c a4 28 be
       -0.31983292 -0.5536226 -0.22249492 -0.16468924
000100 c7 ee bf 3e 37 86 b1 3e c8 65 da be 4b 9e 3d 3e
       0.3748686 0.3467271 -0.42655778 0.18517415
000110 dc 57 d5 bc 9f 0a 41 be d6 b4 c6 3c ed 00 8c bd
       -0.026042871 -0.18851708 0.024256151 -0.06836114
000120 ab ee ff be be 45 49 3e 27 9d dd bd c8 75 43 bd
       -0.49986777 0.19655511 -0.1082099 -0.047719747
000130 9b eb 37 bb c7 10 fb 3d 4e 24 b9 bd 7c fb 11 bf
       -0.0028064016 0.122590594 -0.09040128 -0.5702436
000140 9a c9 24 bf 33 0d ec be d8 a8 a5 be 30 a9 fe be
       -0.6437012 -0.4610382 -0.3235538 -0.49738455
000150 d6 4f 9b bf 9e 20 87 bd af d0 3f 3c 6c bb 97 be
       -1.2133739 -0.06598018 0.011707469 -0.2963518
000160 b8 9e c1 be a8 76 50 be 80 c6 08 bf dc 24 94 be
       -0.37816405 -0.20357764 -0.53427887 -0.2893437
000170 a9 80 04 bf b6 a2 cb bd 7d f9 e2 be 9f 2b 0d 3f
       -0.5175882 -0.09943144 -0.4433097 0.55144686
000180 c1 0e d0 3d ce ba f3 ba 57 5f 60 bf 7b 6c 5d 3c
       0.10159064 -0.0018595101 -0.8764548 0.013514633
000190 4e 88 97 3d f4 0e 63 bf c1 e3 86 be e3 1f 90 be
       0.07399045 -0.8869469 -0.26345637 -0.28149328
0001a0 87 b6 d8 3d e5 15 f9 be 4a c1 eb bd ef 94 d4 be
       0.10581689 -0.48649517 -0.11511476 -0.41519877
0001b0 d9 bd 14 bf fa ef 8e bf 8f 99 81 be ba 8c f3 be
       -0.58102185 -1.1166985 -0.25312468 -0.47568303
0001c0 0a b7 44 3e e1 fb 6f 3e 12 c7 0f bf 60 f0 9c be
       0.19210449 0.23435928 -0.5616313 -0.30652142
0001d0 5a e7 3f be 4a 75 ab be ec 17 81 be c8 b9 07 be
       -0.18740597 -0.33487922 -0.25213563 -0.13254464
0001e0 18 e5 2c be 88 bd 30 bf 15 50 37 bf 45 78 a0 3e
       -0.16884267 -0.690392 -0.7160657 0.31341758
0001f0 90 8a d7 bd 31 27 fc be ab fa c2 be a8 25 ba be
       -0.105244756 -0.4924865 -0.3808187 -0.36356854
000200 76 47 d6 be b9 6b 3f be d1 e6 a9 be 2c eb 01 bd
       -0.41851395 -0.18693437 -0.3318391 -0.031718418
000210 97 d9 b1 be 1a 31 a7 3e e5 9c b1 bd 11 91 a0 bd
       -0.3473632 0.3265465 -0.086725034 -0.07840169
000220 e8 ba 06 be 9b 7b 10 3f d2 e6 4f bd 18 29 8b bd
       -0.13157237 0.56438607 -0.050757237 -0.067949474
000230 38 a4 35 3f 61 7b ac be ca d0 a9 bd c8 57 cb bc
       0.709537 -0.3368788 -0.082917765 -0.02482213
000240 2f f4 96 bc 97 6b 2a 3e 93 57 58 bc e7 31 00 bf
       -0.018426983 0.16642605 -0.013204473 -0.50076145
000250 42 3b 96 be 72 a5 4a be 40 08 da be 20 b7 a0 bd
       -0.29342085 -0.19789675 -0.4258442 -0.07847428
000260 75 8f 00 be 88 49 4b be 11 93 e3 3e 0b 70 fb bd
       -0.12554725 -0.19852269 0.4444814 -0.1227723
000270 7d c1 48 bd 30 a6 fb 3e b5 3f 4e bf 67 e2 1f bf
       -0.04901265 0.49150229 -0.8056596 -0.6245484
000280 c2 00 2b be fb ba ac be 1e a2 f2 bb 4d 72 01 bf
       -0.16699508 -0.33736405 -0.00740458 -0.50565034
000290 63 78 e4 be e9 dd c2 be c3 92 99 be ab b3 28 3e
       -0.44623098 -0.3805993 -0.29994783 0.16474788
0002a0 eb 0c 7f 3d 7e 0d 1b be 19 94 07 3f a1 b1 90 3e
       0.06226818 -0.15141866 0.52960354 0.2826052
0002b0 74 b5 54 3e 04 f1 02 3f 9c 97 c6 be 4f d3 2d be
       0.20772344 0.5114901 -0.38787544 -0.16975139
0002c0 fa b1 f7 bd be 51 bc be 03 c6 a6 bd bd 54 cf 3e
       -0.12094493 -0.36781114 -0.081432365 0.40494338
0002d0 30 0d de bd cc 7a ba 3d 18 a6 44 3f 0a d3 18 bd
       -0.10842359 0.09105453 0.7681594 -0.037310638
0002e0 ab c7 fc 3c f4 4d 73 3e d8 3b e1 bd b3 87 51 3e
       0.030856928 0.23760206 -0.109977424 0.20461921
0002f0 5d f9 5a 3e e3 89 9a bd 3d a2 ae 3e 64 a3 b2 be
       0.21384187 -0.07545831 0.34108153 -0.34890282
000300 e0 10 2f be ab a5 04 3f b5 6c 48 3c 7a d7 6d be
       -0.17096281 0.5181529 0.012232949 -0.23226729
000310 f0 0c 0c bf 01 01 7a 3e dc b3 c3 bc 95 53 91 3c
       -0.5470724 0.24414445 -0.023889475 0.01774005
000320 fb e7 ca be 7c 1d aa 3e 6a 95 96 be db 5f b5 be
       -0.39630112 0.3322562 -0.2941087 -0.35424694
000330 cc ab cf bc 2b ae 98 bc 0a 38 e3 be 02 93 60 bf
       -0.025350474 -0.018637737 -0.44378692 -0.87724316
000340 b5 99 11 bf f0 a3 0f bf 0e e1 4c be 60 de 0e be
       -0.56875163 -0.56109524 -0.20007727 -0.13952017
000350 86 aa 74 be 20 d5 d5 be c5 a5 50 be 57 6b 93 be
       -0.23893175 -0.41764164 -0.20375736 -0.2879283
000360 43 97 78 bf 45 cd de bd 44 62 85 be d1 a8 93 be
       -0.9710581 -0.10878996 -0.26051533 -0.28839734
000370 d3 2a 0f 3c ae 3b b3 3b 9d cb 94 be 8e 9d e7 3e
       0.008738237 0.005469761 -0.29061595 0.45237392
000380 1e b1 b6 be 48 53 1b be 81 25 81 be 13 e7 14 be
       -0.35682005 -0.15168488 -0.25223926 -0.14541273
000390 60 54 8f be 4b 6a 98 3e 1c bc 22 3f 6b 0b 30 bf
       -0.2799406 0.29768595 0.6356828 -0.6876742
0003a0 0f dc e4 be 68 58 5d 3e 22 d0 0a 3f bc 95 78 bf
       -0.4469914 0.21615756 0.54223835 -0.97103477
0003b0 34 e7 94 3c a6 55 0d bc ce dc 11 bf 19 ef bc 3e
       0.018176652 -0.008626377 -0.56977546 0.36901167
0003c0 82 d3 56 bc 27 c0 f9 be 56 94 ad be 57 51 d5 be
       -0.013111951 -0.48779413 -0.33902234 -0.4166362
0003d0 90 87 05 3e d6 28 5b be 1b e5 a2 be 97 26 7e be
       0.13039994 -0.21402296 -0.3181542 -0.24819408
0003e0 b6 eb c9 be 3c 2f c2 be e4 72 28 3f 56 35 f5 3e
       -0.39437646 -0.37926662 0.6580031 0.47892255
0003f0 9e a4 34 be c4 93 dc be 52 03 7f bd 9e bb a3 be
       -0.17640921 -0.43081486 -0.062259026 -0.31979078

fc2.weight f4 [2, 300]
000000 b6 fb 97 3f f2 1b c4 3e c6 f4 69 be 7d 4d 5b 40
       1.1873691 0.3830257 -0.2284728 3.4266045
000010 bc 0f af bf 74 65 95 bf 22 30 37 3f 3e e7 13 3d
       -1.3676677 -1.1671586 0.7155782 0.0361092
000020 27 7f b1 3e 80 2a a7 bc 8a e7 14 3f ad cf 79 3f
       0.34667322 -0.020406008 0.581658 0.97582513
000030 d4 6a 51 bf c7 12 d0 3d 4f 1f 9d bf 5b 4d fe 3f
       -0.8180363 0.101598315 -1.227518 1.9867357
000040 d2 6f 60 3c d2 d0 ec 3f 6b c8 d1 bb 29 b9 27 c0
       0.013698535 1.8501227 -0.0064020655 -2.6206763
000050 46 33 63 3f d4 31 80 3e fc 6d 29 be 1b 41 90 bf
       0.8875011 0.25038016 -0.16545862 -1.1269869
000060 f3 f4 90 3f 2a ff bf 3f 67 50 80 bf c8 80 29 bf
       1.1324753 1.4999745 -1.0024537 -0.6621213
000070 23 f7 1c c0 6f 4d 8b 3f 1e 4d c1 bb a0 5b 3e bf
       -2.452584 1.0883006 -0.0058990857 -0.7435856
000080 ce 82 31 3f 6e cd 37 bf f7 d6 90 3d 89 1a 5e 3d
       0.6934022 -0.71797836 0.07072251 0.054224525
000090 45 64 98 bf 0c 85 94 3e 3a d0 53 bf 54 e6 4a be
       -1.19056 0.29007757 -0.82739604 -0.19814426
0000a0 98 1e 5d bd 9e 4d 19 40 ae e3 60 bf e5 f4 b7 3f
       -0.053984255 2.3953624 -0.8784741 1.4371611
0000b0 d2 d4 4b 3f 1a 52 d0 bd eb 2b 14 c0 e0 c0 84 3f
       0.79621613 -0.1017191 -2.3151805 1.0371361
0000c0 82 ac eb bf 49 43 f6 3f 2d 48 0a 3f 25 5a 87 bf
       -1.841202 1.9239284 0.5401638 -1.0574385
0000d0 ef 9d 3c 3d 8a a9 02 3f 0e 89 c5 bc 0b 2c 9e 3c
       0.046049055 0.51039946 -0.024113204 0.01930811
0000e0 d1 e7 38 3f ae 18 8d 3f 28 ce 69 3e e0 e4 9c 3f
       0.72228724 1.1023157 0.22832549 1.2257347
0000f0 05 34 24 bd 6d a1 3f bf 8b 42 9e bf 2c 88 90 3f
       -0.040088672 -0.7485569 -1.2364057 1.1291556
000100 6d c5 b6 bd 99 e2 c4 3f 6d 93 a7 bf b4 14 26 3f
       -0.08924375 1.5381652 -1.3091866 0.6487534
000110 63 7e a8 bf 8b cc 88 bf c1 a5 dc 3c e6 66 d8 bf
       -1.316357 -1.0687422 0.026934506 -1.6906402
000120 a3 63 f2 3f 66 b4 79 bf ec b7 a9 be cb 16 fa bc
       1.8936657 -0.9754089 -0.33148134 -0.030528447
000130 ab c5 6c bf 7a 40 43 3f 51 b4 21 3f 42 f0 53 3f
       -0.9248912 0.7627026 0.63165766 0.8278848
000140 6d d2 1a bf 40 10 68 40 9a dc c2 bf 0c d7 c3 3f
       -0.60477334 3.6259918 -1.5223572 1.5300002
000150 9d 02 11 40 63 42 b9 bf 02 a2 4f 3f 4a 9f a1 3d
       2.2657845 -1.4473385 0.8110658 0.0789171
000160 91 3e 85 3f 56 39 5a ba a2 a4 2c 40 19 7b d1 3e
       1.0409719 -0.0008324584 2.6975484 0.4091423
000170 c9 f1 9f 3f 38 ec 46 3f 61 bb 92 be 30 b7 e6 bf
       1.2495662 0.7770419 -0.28658584 -1.8024654
000180 95 41 a4 3e c8 fc 8a 3f 76 5f d5 3f ad 42 94 3f
       0.32081285 1.0858393 1.6669757 1.1582848
000190 71 c6 7a be 5f b7 95 bf 05 04 f7 3e bc 91 48 3d
       -0.24489762 -1.1696585 0.48245254 0.048967108
0001a0 a1 68 5a 3d d2 c4 d0 3f 70 33 ef 3e 84 7c 7c bf
       0.05332244 1.6310065 0.4671893 -0.98627496
0001b0 94 a4 9c 3d d4 25 84 3f 61 43 ef 3c d5 23 e9 bd
       0.07648578 1.0324044 0.029206933 -0.113837875
0001c0 5c 65 b8 3e 1f 3d 5d c0 66 94 28 c0 21 e0 2a c0
       0.3601483 -3.4568555 -2.6340575 -2.6699297
0001d0 d7 8d be 3f fd 9b 8c bf 9c 16 3f bd 0c e9 23 40
       1.4887036 -1.0985104 -0.04665242 2.561099
0001e0 74 83 3e bf 2d aa a0 bf 41 e4 bc 3f 41 12 7f bf
       -0.7441933 -1.2551934 1.4757158 -0.9963723
0001f0 21 56 7a 3d 3a 61 23 c0 a9 4c 2f bf 96 4e cd be
       0.061117295 -2.5528092 -0.6847635 -0.4009902
000200 1c 61 30 3f 52 ca 15 c0 d1 f1 be be c4 17 80 c0
       0.6889818 -2.3404737 -0.37293866 -4.002901
000210 4d a0 21 c0 57 e0 6a 3f 34 cd 2a 3e 87 9e f3 bf
       -2.525409 0.91748565 0.16679841 -1.9032754
000220 d9 0a 6b 3d c9 10 94 bf a3 42 06 3e f7 92 e2 3f
       0.057383392 -1.1567622 0.13111357 1.77011
000230 a7 1f 2d bf 93 56 56 3d 09 2a f1 be 82 a0 17 3f
       -0.6762642 0.052328657 -0.47102383 0.5922929
000240 1e 95 5a bf ea 51 f1 3e 58 d1 bf 3f c7 10 cc bf
       -0.85383785 0.47132808 1.4985762 -1.594262
000250 04 da e2 bf 13 b1 07 40 52 bf de be 5d 69 2d bd
       -1.7722783 2.1201828 -0.4350534 -0.04233681
000260 41 b3 54 bf bf f6 49 3d 25 24 14 bf bc 3c aa bc
       -0.8308602 0.04930758 -0.5786765 -0.020780914
000270 14 b5 24 bf b6 46 53 bf 8e 24 9a 3f be fd 1c bf
       -0.64338803 -0.8252977 1.2042406 -0.6132468
000280 db 8a bb be 2f de a7 3e 42 0e 92 bd 61 f0 00 c0
       -0.36629376 0.327867 -0.07131626 -2.0146716
000290 56 fc c2 3f 9e 94 2b 3e 53 cd 2a bf 39 a4 c7 be
       1.5233257 0.16755912 -0.6671955 -0.3899248
0002a0 e6 df 22 3f 00 61 83 bf 08 4a 9f be 02 94 ba 3e
       0.6362289 -1.0263977 -0.3111117 0.36441046
0002b0 11 b0 de be 0a 3f a4 3f 29 0c 0c be dd d4 ed 3f
       -0.43493703 1.2831738 -0.13676514 1.8580586
0002c0 1e e7 30 bf 39 29 15 bf 1d e0 8e bf dd 39 38 be
       -0.69102657 -0.58266026 -1.1162144 -0.17990823
0002d0 06 f6 9a 3b d0 ea 0c c0 0a 25 0a bf 44 b2 4e 3d
       0.0047290353 -2.2018318 -0.5396277 0.050462976
0002e0 28 a7 9b 3e 4e ac 03 c0 36 c6 3c 40 9c 46 35 be
       0.30400968 -2.0573916 2.9495978 -0.17702717
0002f0 7b ea cf 3e 84 2b ee bf 2e 9d 9c 3e be ef 8e be
       0.40608582 -1.860703 0.3058867 -0.27917284
000300 cb 1b 9b be e2 c4 ce 3e 69 b3 a4 3f 98 f3 cb 3e
       -0.30294642 0.40384585 1.2867252 0.39834285
000310 b3 05 1e c0 e9 63 ed be 76 0d 00 c0 fc 41 4c bf
       -2.4690979 -0.46365288 -2.0008216 -0.79788184
000320 c6 31 0b 3e 40 e8 21 bf 8e 40 fc 3c fe e5 61 bf
       0.13593206 -0.6324501 0.0307925 -0.88241565
000330 f0 b5 ed be d1 ec 04 3d b6 83 13 c0 b1 56 c6 bf
       -0.4642787 0.03245241 -2.304914 -1.5495206
000340 e1 6a 57 bd 75 2f a9 bf 5f c8 71 be ce 80 b4 3c
       -0.052592162 -1.3217608 -0.23611592 0.022034075
000350 70 98 3f 3d 42 77 ed 3f 3f e9 5f 3c 47 93 8d 3f
       0.046776235 1.855202 0.01366645 1.106057
000360 99 7c 8c bf 87 c3 44 3d 58 93 23 3f 37 ee 9b 3c
       -1.0975524 0.048038032 0.63896704 0.019034488
000370 cd 42 2f 3f a0 03 8b 3f fa 75 f7 bd 83 e8 06 40
       0.68461305 1.0860481 -0.12083049 2.1079414
000380 8d 4b 37 be 5f bb a8 3e 79 2d fa 3f 95 a6 fe 3b
       -0.17899914 0.32955453 1.9545127 0.007771323
000390 ce e8 b4 3f 76 10 a6 3e 94 0a a2 3f f2 ba 94 3f
       1.4133546 0.32434434 1.2659478 1.1619551
0003a0 12 e8 79 3f 90 ba b8 3e e4 12 8d bf 08 53 9b 3e
       0.97619736 0.36079836 -1.102139 0.30336785
0003b0 1a 50 ca be c1 05 8e be 2f 5f 11 bf a0 68 01 3f
       -0.39514238 -0.27738765 -0.56785864 0.5055027
0003c0 90 53 a5 3f a9 30 9a 3e 88 bf 21 bc 28 45 d8 3f
       1.2916126 0.3011525 -0.009872325 1.6896105
0003d0 5c ff 98 3f 53 61 96 bc 33 5c bd bf 1e 72 88 3f
       1.195293 -0.018356955 -1.4793762 1.0659826
0003e0 3f 53 1b c0 83 14 15 bf ce 16 57 3f ae 78 e6 be
       -2.426956 -0.58234423 0.8401917 -0.45013946
0003f0 9b 7a dc bf e7 a9 94 3e 30 b4 30 3d 23 67 45 bd
       -1.7224916 0.29035875 0.04314059 -0.048194062

fc2.bias f4 [2]
000000 28 41 d0 bc 1a 1b 0f be
       -0.025421694 -0.13975182
