AutoRobotArm/params_critic.pth (torch, 17155 bytes, 3 tensors)

fc1.weight f4 [300, 11]
00000000: bce4 4abe 47a7 51bf aad9 263e b756 1d3e
00000010: 5cc7 843d cbfb 363f dafc d0be 0058 03bf
00000020: 9b4d 96be 3fbe 49bd cad0 85bc 3765 86be
00000030: cacb 29bf d4ce 813e 280e 5f3c b0df 3f40
00000040: 2154 63bf 8ec8 2e40 58c8 21c0 8407 9d3d
00000050: d12f 3a3d ee5f 273b 6760 31be aa04 00be
00000060: 3d2c 01bf ff5f 07bf f53e 06bf f3b8 b2bd
00000070: fc50 4d3e cb43 44be 134d b3be a35e b33c
00000080: d870 743e 620d c53e feeb cfbe b635 2e3f
00000090: a36b cdbf 45b1 58bf 24dc 8abe 4257 fabf
000000a0: ed15 a93e 5dc9 2dbf e096 903d ff70 9dbe
000000b0: a675 1fbf 551a 0abf d8b3 33be ab52 0e3e
000000c0: 65fb 39bf f6f4 2c3f 6912 0fbf b0be d0be
000000d0: 1fac 57be 87df 8ebe 8ea2 803b 4daa 0d3f
000000e0: c7ad e9be 26d0 50bd aca0 95bf 8676 b23e
000000f0: 26e9 6fbf cbdf 2540 cd00 f93e fdde 86bf
00000100: 0cd6 b3be b544 86bf 81a9 f33e 1236 10bf
00000110: cb58 803f 0330 b1be ae33 a73e a9dd 6cbe
00000120: 7d77 bbbf 09b5 1cbf 25ee 763e 8d28 e0be
00000130: d5f4 2a3e 902e 2cbf a085 4bbe de5d 5dbd
00000140: eb79 32bf 144d 0440 c7c2 d5bf 900c 6b3f
00000150: 3ae4 2ec0 a1e4 d73e 3555 edbb ef83 e4be
00000160: d36b 803f 5151 6bbe c3da 7c3e 06cf 67c0
00000170: b7ef 733f e1cd 21be 25c6 be3f 3950 83bf
00000180: d813 d23c 3313 27be 0f2b 2fbe 2f86 88bf
00000190: aaeb 29be f12f ffbe 9b89 0a3f 9dad f83e
000001a0: 075e 083f 61b6 a43e 01f0 1abf 7bb6 1e3e
000001b0: a99c 333d cc24 67bc f3fe 53be f6d3 05bf
000001c0: 7396 75bf 1281 04bd 365b fb3e 96de cc3e
000001d0: 8dfe f93e 711a 2b3e f18c 72be 1868 003d
000001e0: f9a9 ecbd aa73 863f 0fb1 48bf a44a 83be
000001f0: 15dd 1bbc 6d11 9bbf a505 0640 b255 3b40
00000200: e27e 553f 1324 35be 23f3 eb3e d87f c0bd
00000210: ea90 17be fe00 c9be cea4 0b3f 964f 4e3c
00000220: 7d69 16c0 8c81 cbbe 2ca6 82c0 6dfc 7ebd
00000230: d328 acbe 9d76 d23d 8d0e 903d c7a8 c33e
00000240: 3964 923e 4504 a1bf 5a66 37ba cd60 06c0
00000250: f4fd 0dc0 bf4e a83f de60 d9bf f940 98be
00000260: 3665 33bf 16b8 603e 10b1 dabe 559f 3abf
00000270: 417f 1fbe 627d afbc a9f2 e33e 0acf 2f3f
00000280: 3d40 5fbf 500a df3d fd32 273e f30a a73d
00000290: 5f18 873e 8ac4 13bf 2add 32bf 8340 9cbe
000002a0: 2554 49c0 7858 6f3d c66a c0be fb11 513f
000002b0: c747 0f3f c845 7d3f a820 d53e 43f8 aabe
000002c0: 02ec 82bf b0af 903e 9ce1 03bd 16dc d5be
000002d0: 2b8b 2d3f 6a55 323f 6af9 bcbf 5bc2 2f40
000002e0: 00ef 7c3f 2675 b5bd c9a0 4a3e 9f14 04bf
000002f0: 17e3 f93e 9dd0 c53e 7a97 01bf 8c6e e4bd
00000300: 8230 883f 7070 e9bf ef52 a140 0053 933e
00000310: 9997 a23d db48 443e 3391 9b3d 5fba e5be
00000320: 6445 74be 7703 473e 15cf 25be 8024 1e3d
00000330: fd74 2d3e 8adf 67be 69c7 783e da7d 5f3e
00000340: 93ec 3abc dd28 4abe d10d 7abe 8b83 02bf
00000350: 5b50 6a3f 7001 eebf 0545 93bf cb35 cfbe
00000360: 6869 40c0 1b7b 64bf a3c8 c33b f136 84be
00000370: a7cf 98be b5b0 92be 8b43 a9bf 0134 08bf
00000380: c43f bfbf 7ab6 dcbf f60e 75bf c465 8cbf
00000390: a5a2 2d3f f1a5 fc3d 4989 d33e 6946 8cbe
000003a0: e74d 9dbe 0ebb d838 a389 64be cd90 82bd
000003b0: f5be 873e a7bd a23e d95d cdbd 111b 1c3c
000003c0: 0645 f63d 83bb 53be b749 91bf c0e8 68bf
000003d0: 706e f9bf 0717 d63e 7c37 d4bd 0779 113f
000003e0: 84aa 853e 4cb3 d1bf 69b8 29be 97cf a33d
000003f0: 4295 53be 324d a1bf f710 febe 0e4c 09c0
-0.19813818 -0.8189587 0.1629397 0.1536511 0.06483337 0.71477956 -0.4081791 -0.5130615
-0.29356083 -0.0492537 -0.01633491 -0.26249096 -0.6632658 0.2535311 0.013614215 2.9980278
-0.88800246 2.730991 -2.527853 0.07667449 0.045455758 0.0025539356 -0.17321931 -0.12501779
-0.5045813 -0.52880853 -0.52439815 -0.087266825 0.20050424 -0.19166486 -0.3501974 0.021895712
0.23871171 0.38486773 -0.40609735 0.68050706 -1.6048473 -0.8464549 -0.2712108 -1.9557879
0.3302454 -0.6788538 0.07060027 -0.30750272 -0.6228889 -0.5394643 -0.17549074 0.13898723
-0.7264922 0.6756128 -0.55887467 -0.40770483 -0.21061753 -0.27904913 0.003925628 0.55337983
-0.45640394 -0.050979756 -1.1689658 0.3485605 -0.9371513 2.5917842 0.48633423 -1.0536801
-0.35124242 -1.0489718 0.4759026 -0.56332505 1.0027097 -0.34606943 0.32656616 -0.23131432
-1.464584 -0.6121374 0.24114282 -0.43780938 0.16694959 -0.6725855 -0.19875193 -0.054044597
-0.6971728 2.0672045 -1.6700066 0.91816044 -2.7326798 0.42166618 -0.0072428235 -0.44631907
1.0032905 -0.22980238 0.24692826 -3.6220107 0.9528765 -0.15801193 1.4904219 -1.0258857
0.025644228 -0.16315918 -0.1710627 -1.066595 -0.16593805 -0.49841264 0.5411622 0.48569956
0.53268474 0.32170394 -0.60522467 0.15499298 0.043850575 -0.014107894 -0.20702724 -0.5227655
-0.9593269 -0.032349654 0.49093026 0.4001357 0.4882702 0.16709305 -0.23686577 0.03134927
-0.11555857 1.0504048 -0.7839517 -0.25642884 -0.009513159 -1.2114693 2.0940945 2.9271054
0.8339673 -0.17689542 0.46083936 -0.09399384 -0.14801374 -0.3925857 0.54548347 0.012592217
-2.3501885 -0.39747274 -4.0827847 -0.06225245 -0.33624896 0.1027653 0.07034025 0.38214704
0.2859209 -1.2579428 -0.00069961476 -2.0996583 -2.218625 1.3149031 -1.6982687 -0.2973707
-0.7007631 0.21945223 -0.42713213 -0.7289937 -0.15575887 -0.021422092 0.44521073 0.6867529
-0.87207395 0.10890639 0.16328044 0.08156385 0.2638578 -0.5772177 -0.6986872 -0.3051797
-3.1457608 0.05843398 -0.37581462 0.8166806 0.559689 0.989346 0.41626477 -0.33392534
-1.0228274 0.2825904 -0.03219758 -0.41769475 0.6779048 0.6966158 -1.4763615 2.7462375
0.98802185 -0.08860235 0.19787897 -0.51593965 0.48806068 0.38635722 -0.5062176 -0.11153898
1.0639803 -1.8237438 5.0413737 0.2877426 0.07939071 0.19168417 0.07596054 -0.44868752
-0.23854595 0.19434915 -0.16192277 0.038609028 0.16939159 -0.22643867 0.24294819 0.21825352
-0.011408943 -0.1974215 -0.24419333 -0.5098197 0.9152886 -1.8594189 -1.1505438 -0.40470728
-3.0064335 -0.89250344 0.0059748455 -0.25823167 -0.29845926 -0.28650442 -1.3223737 -0.5320435
-1.4941335 -1.7243187 -0.95725954 -1.0968556 0.678263 0.12336338 0.41315678 -0.2739747
-0.30723497 0.00010334524 -0.22318129 -0.06375275 0.26512876 0.31785318 -0.10027666 0.0095279375
0.12024884 -0.20676999 -1.1350621 -0.9098015 -1.9486828 0.41814443 -0.10362145 0.568253
0.26106656 -1.6382842 -0.16574253 0.07998579 -0.20662406 -1.2601683 -0.49622318 -2.145267

fc1.bias f4 [300]
00000000: 58fd d1be 7529 c1bd 16cb 2e3c 0989 8cbf
00000010: dd6c bdbe d59a 6bbe 06d9 f13e 3e74 a43e
00000020: 8676 4f3f fc6d 65bf 29fb e4be 822d 403e
00000030: 6d43 c23e cd10 06bf 1652 ecbd 62d6 febe
00000040: 1cdb 1d3f 0bc6 543d c3f1 bcbe 3826 89bf
00000050: f87e 8dbf 905f 55be 4675 223e f3e6 bc3e
00000060: b04a 64bf b420 f63d df7b 87be 58f1 70bd
00000070: f486 85be cc7c 6bbe 2b49 443e 64b6 75be
00000080: 5c10 32bf 2aed 03bf e88e b23e 97c9 a2be
00000090: 1f7e c2bd 09ee bebf f7d1 4dbe e504 33be
000000a0: caf1 6ebe 08f8 0cbf 0d33 853e 7ac9 51bf
000000b0: 3046 ff3e 3ddc adbe 46c4 a7bb b762 a0bf
000000c0: 8c66 8fbf 6ed2 57bf aaf3 67be 05b5 5fbf
000000d0: bf0d 843e 7b53 79be b729 85be be28 c13e
000000e0: cf18 9ebe 5459 80be 6457 88be 8e75 023f
000000f0: 05dc 343e 2383 05bf 1752 b8be 99a5 31bf
00000100: bacd abbe 5e28 1cbf 2c9b eb3e bb2e e63d
00000110: 4821 3ebd 3c87 2e3f a26c cbbe 32d9 08bf
00000120: 8e22 b9bb 483d 333f cc12 4cbe 15c1 883e
00000130: 8d5e 58be 6e14 c03e 93c9 0a3e b9d2 b2be
00000140: 6b1a 6dbf c9a9 2f3f 9a9f 923e a10b 32bf
00000150: 7402 103e 872d acbf 7851 8cbd 7706 b7bd
00000160: 1742 40bf 72e9 06be 1e1a f4be 639f c93e
00000170: 65ab eb3c ea13 283f 1425 9abe 7841 a5be
00000180: 0eb6 71bf b28f c03e fd81 fcbe 011e 64bf
00000190: 0595 85bf d14e 93bf 0daf b53e f8d2 5abe
000001a0: aca2 193e 0fca 553f 9688 40be 916a b53e
000001b0: abaf d8bb 6577 72bd 674b a7bf f2bb 50bc
000001c0: dbbd e9be 6d10 9cbe c198 20be 9d5a 1a3d
000001d0: b0ad eabe 0c88 1cbf 0020 7ebf a40e b8be
000001e0: cd61 08bf 9a21 0ebf 720c 3cbe 724e 973e
000001f0: 8281 2d3e 21f8 19bf 8cc1 12be a1af 913e
00000200: 2067 1dbe 1c1b f73c 50e2 65be 1039 9abe
00000210: b59c 83bd c86c 1ebd 0037 a8be 443e 82be
00000220: 479e 0cbf fe5a d1be 056c eebe 3b43 fa3d
00000230: 2ffd ae3f 2aff 34bf bc18 a1be 42a8 de3d
00000240: a850 a9be 3ab5 f53e 521c 93be 5706 dabe
00000250: 1969 0dbf 026a 67bf 073d 683e b317 84bb
00000260: b50d 11bc f652 803e 02cf d8be a82c dcbe
00000270: 7518 9cbe 70e5 96be 81f1 57be 329d 573e
00000280: 86c6 20be a57d 583e a60b 923e 45e0 2c3e
00000290: 7211 fdbe 6db5 b4be 0a1d 853c 72a2 8dbe
000002a0: b7c3 023f 4818 a2bd d76b 473e f07c 8cbf
000002b0: 5377 22bf 3253 2fbe 83f7 96bf 34b1 2e3f
000002c0: 9070 28bf c377 9abe 5dca 31be b6b7 f13e
000002d0: e564 983e 8010 56bd 783b 01bf a314 4dbf
000002e0: f4c1 343e 4e80 16be 5bbe 04bf ec99 11be
000002f0: 59a5 4cbf 2e23 5dbf 0400 5abf 753b 7cbe
00000300: dbef c6be 2ca8 163f d818 8abe 7749 1ebf
00000310: 7526 16be 11e4 83be de1c a33f 47f6 b63d
00000320: 4e2a f03e 651d 90be f915 11bf dc66 1dbf
00000330: 8cc5 24bf 8014 85bd 5fa0 513e 8dc1 fe3e
00000340: 8966 e63d 621f b1be 3f13 ebbc b392 e1be
00000350: 0a31 6ebf aa86 293f ee74 eebe fe17 1abf
00000360: 3a7b 79be 2a19 3e3b 00a1 22bf 38f6 99be
00000370: 1089 49bf b26f a1bf 3f58 35bb ac5d 62bf
00000380: 22b8 0d3f 5fee fd3e 3dc0 e4be b48d a8bd
00000390: c5a0 d6be bf5f e9bd bea9 643f 87f3 623e
000003a0: 8dd7 8d3e b3df fbbe 0d51 953e be68 d83e
000003b0: d332 acbe 697e 3fbe dcd7 e03b 0f53 cfbe
000003c0: f7e8 2d3d 5d89 31bf f6d1 e9bd da69 aabe
000003d0: 4384 be3e fcdc bcbc 808e ddbe 3e4f dbbe
000003e0: 6148 903e 5f27 e53d 6ae2 a43f efa2 70be
000003f0: 1cfe 243f 014a 1dbf 286c bcbf 5a60 5abf
-0.41013598 -0.094317354 0.010668537 -1.097932 -0.3699712 -0.23008282 0.47235888 0.32119936
0.8104023 -0.8962095 -0.4472287 0.1876736 0.37942067 -0.52369386 -0.11539094 -0.49772936
0.6166246 0.05194668 -0.369032 -1.0714788 -1.1054373 -0.20837235 0.15865049 0.3689495
-0.89176464 0.120179564 -0.26461694 -0.058823913 -0.26079524 -0.22996825 0.19168536 -0.23995358
-0.6955621 -0.5153376 0.34874654 -0.31794426 -0.09496712 -1.4916393 -0.20099626 -0.17482336
-0.23334423 -0.55065966 0.2601551 -0.81948054 0.49858236 -0.3395709 -0.005119833 -1.2530125
-1.120317 -0.84305465 -0.22651544 -0.8738559 0.25791737 -0.24348252 -0.26008388 0.37726396
-0.30878302 -0.25068152 -0.26629174 0.50960624 0.17662056 -0.52153224 -0.3600013 -0.69393307
-0.33555394 -0.60999095 0.46016824 0.11239382 -0.04641846 0.681751 -0.39731318 -0.53456414
-0.005649871 0.7001538 -0.19929045 0.2670981 -0.21129818 0.37515587 0.13553457 -0.34926394
-0.92618436 0.68618447 0.2863739 -0.69548994 0.14063436 -1.3451394 -0.068514764 -0.0893678
-0.75100845 -0.1317499 -0.47676176 0.39379415 0.02876825 0.65655386 -0.30106413 -0.3227651
-0.9441842 0.3760963 -0.49317923 -0.8910828 -1.0436102 -1.1508428 0.35485116 -0.2136954
0.1500346 0.8351144 -0.18802103 0.35432866 -0.006612738 -0.059195895 -1.3069886 -0.012740122
-0.4565266 -0.30481282 -0.15683271 0.03768407 -0.45835638 -0.6114509 -0.9926758 -0.3594867
-0.5327423 -0.5552002 -0.18364123 0.29552037 0.16943935 -0.6014424 -0.14331645 0.28454307
-0.1537137 0.030164294 -0.22449613 -0.3012166 -0.06426374 -0.03867796 -0.32854462 -0.2543813
-0.5492901 -0.40889734 -0.46566787 0.122198544 1.3671016 -0.7070185 -0.31464183 0.108719364
-0.33069348 0.47989827 -0.28732544 -0.42582962 -0.5523849 -0.9039613 0.2267953 -0.0040311455
-0.008853366 0.25063294 -0.42345434 -0.4300282 -0.3048741 -0.29471922 -0.2108822 0.21056059
-0.1570073 0.2114168 0.28524512 0.16882427 -0.49427372 -0.35294667 0.016249198 -0.27662998
0.5107989 -0.079147875 0.19474731 -1.0975628 -0.63463324 -0.1712158 -1.1794285 0.6823914
-0.65796757 -0.30169496 -0.17362352 0.47210473 0.29764476 -0.05226183 -0.5048137 -0.80109614
0.17652112 -0.14697382 -0.5185296 -0.14218873 -0.799398 -0.86381805 -0.85156274 -0.24632056
-0.3885487 0.5885036 -0.2697208 -0.6183085 -0.14663108 -0.25759938 1.2743185 0.089336924
0.46907276 -0.28147426 -0.5667415 -0.61485076 -0.6436393 -0.06498051 0.20471333 0.49757043
0.11250026 -0.34594256 -0.0286957 -0.44057235 -0.9304358 0.66221106 -0.46573585 -0.6019286
-0.24363413 0.0029006698 -0.63526917 -0.30070662 -0.78724766 -1.2612212 -0.0027671007 -0.8842418
0.5535909 0.49595925 -0.44677916 -0.08230153 -0.41919532 -0.11395215 0.89321506 0.22163211
0.27703515 -0.49194106 0.291634 0.42267412 -0.33632526 -0.18700565 0.00686167 -0.40493056
0.0424585 -0.69350225 -0.11417 -0.33283883 0.37210283 -0.023054592 -0.4327278 -0.42833894
0.2818022 0.1118915 1.2881596 -0.23499654 0.6445024 -0.61441046 -1.4720507 -0.8530327

fc2.weight f4 [1, 300]
00000000: 8140 97bf 9cda b43f 26d7 113e c937 0a40
00000010: c9ef cb3f a8dd 60bf 7546 b9be 8299 863f
00000020: 5e99 f23f 9697 4dbf 2728 bbbe 65ab 90bf
00000030: 191e c5bf e7d5 64bf 7915 bfbc bcaf 2440
00000040: 79bc ab3f 2e3c dfbf b85d a7bd 37af 1d40
00000050: 29f7 993f 7af5 713c cae6 d1bf 8f66 98c0
00000060: 82b8 b2bf 9d6b eb3f 89a7 c8bd eb1c a63e
00000070: 3a90 b6bf 8a5b 9ebe bde7 3cbf 9ab1 e33c
00000080: 52e8 47c0 436e 143f 3705 bb3f 3d99 97bf
00000090: 1c66 fbbc 40ae 96bf 49a9 0f3d 51e3 2bbb
000000a0: deee b4bf 5621 3ac0 92c9 67bf cbc3 ed3f
000000b0: e54f 913e c894 6dbc 822c cc3f 6f17 b8bf
000000c0: 887c 0ebf 15bc f5bf 1e67 8cba 0244 e4bf
000000d0: 2f99 72bf 6763 993f e7ef 91bc 9111 b93f
000000e0: e66c fa3e 7291 b4bf 75b4 0440 06b0 fcbf
000000f0: 0443 1cbf e482 c3bf e383 55bf bfad ee3f
00000100: fe88 9abf 99d4 1940 ad84 473f 08b4 0240
00000110: 1c8d 23bf 75e6 8b3f dbd2 b23f 7e70 673e
00000120: c615 3fc0 1e7d 5ac0 b802 28c0 d4cf 06bf
00000130: ccf9 bf3f d405 30bf 7e20 07c0 6de4 823d
00000140: 402e 17bf b951 eb3e 2d08 c0c0 9ed4 babf
00000150: f030 a73f 4ce8 abbf b161 683d 3920 fbbf
00000160: d08a 933f 55e4 4fbf 9aee c63f 7a7d f7bf
00000170: 4b99 2dc0 4500 b1bf e101 f53b 5644 a03f
00000180: 5a21 d43f bc51 7740 79cf 593f f289 0bbe
00000190: e611 ebbf df17 d93f 8b54 c3bf 58b7 8cbb
000001a0: 2b87 b7bf a889 a63f ca61 eabf 4dd4 b43f
000001b0: d3e9 93bf 142f 19bf db36 90bf e217 42bf
000001c0: 398f 81bf 984c ee3c ce03 2ebb 5768 8c3f
000001d0: 2338 76bf 8263 b1bf aadd d33f cc2c 9a3f
000001e0: 7649 c6bf 120f 68be d4a0 7ac0 b995 0540
000001f0: e932 3ec0 5147 3fbf 2afe 063c 2d94 80c0
00000200: 6849 b5bf ae6f 8a3b 3997 d6bc 218f 7e3e
00000210: 682d 963c 28d2 bd3c 9bce aa3c 4883 6abf
00000220: efcf acbf 3dac 8d3f b22b dabf cd37 2240
00000230: 090d 5040 a91b 10c0 8a7e 1c40 0dbd c33f
00000240: 77ea 2ebc eef9 98bf bf48 833f 2f02 e1bf
00000250: 5a47 8ebe 7c71 06c0 ca14 503f 6bf3 b83f
00000260: 9568 0340 5c71 1cc0 ab44 bfbe 92e4 7cbe
00000270: 4d42 e73c faef a33d 62ea 3540 d42e c3bf
00000280: 4ec8 3dbd 1c39 94bf 2e76 dbbf 05e3 67be
00000290: 47f6 d6bf 3b8d cdbf 9ba3 253d 9e34 d43b
000002a0: 4a01 ae3f fd8b d23c 234f 09c0 fea2 f3bf
000002b0: 04dd 693f d684 dd3c 7525 0040 6d0b 94bf
000002c0: 389c f1bf 32ec 47bc 43ab 8ebc bfbf 083f
000002d0: 2c11 2740 d197 c33c c0ce d1be cb8a 04c0
000002e0: 33f8 acbf 646a 7ebc 542d 0b40 be2f 9c3b
000002f0: edae ba3f 88ee 9f3f e9bc 3dc0 1711 b8bf
00000300: 5b93 a33f 7c39 fa3f da75 d8bc 1e69 1640
00000310: d36e 51bc e1d5 87bf 6c2a fa3f 7e85 1c3f
00000320: 7f51 a9bf cd1a e73e 4a69 63bf a35b 793f
00000330: 9827 38bf 28ba 753f 3e90 03c0 c317 f03f
00000340: d197 71c0 b930 93bc 831e f33f 00be df3f
00000350: 2c8f c4bf 06f2 ebbe 0758 d1be 102e cabf
00000360: 177c 69bc cfb3 c4bf 33aa fe3f f8cc 0d3d
00000370: a72e fdbf 62c6 b2bf 9d8f 433f 811b a83f
00000380: e55e a83f dce5 2ebf c051 babf 8a76 2ec0
00000390: a6b9 35bf 10b8 a13f 2f4e 213f dc5a 943f
000003a0: f420 16c0 b032 89bb e108 3b3f 7a64 03c0
000003b0: 564d b2bd 1955 ad3f a455 e33b f4ce 18c0
000003c0: a4d6 12c0 e924 b1bf 780e c03c 56da ccbf
000003d0: a031 97bf eb50 cb3e 103b 84bc cad7 f6bf
000003e0: 486b f4bf 371d b33f b221 b53f 8f8f ee3f
000003f0: 4502 a13f a7dc 2ac0 c895 d4bf 82d0 0e40
-1.181656 1.4129214 0.14242229 2.1596549 1.5932552 -0.8783822 -0.36186567 1.0515597
1.8953054 -0.80309427 -0.3655407 -1.1302305 -1.539981 -0.8938889 -0.023325669 2.573226
1.3416892 -1.744024 -0.08172172 2.4638193 1.2028552 0.014767999 -1.6398556 -4.7625194
-1.3962557 1.8392216 -0.0979758 0.32443938 -1.4262764 -0.30929214 -0.73791105 0.027794648
-3.1235547 0.57980746 1.4610966 -1.184364 -0.030688338 -1.1771927 0.035073552 -0.002622802
-1.4135396 -2.9082847 -0.90541947 1.8575376 0.28381267 -0.014500804 1.5951083 -1.4382151
-0.5565877 -1.9198023 -0.0010711884 -1.7833254 -0.9476499 1.198346 -0.01781459 1.4458486
0.48911208 -1.4106886 2.0735142 -1.9741218 -0.6103976 -1.527432 -0.8340437 1.8646773
-1.2073057 2.403601 0.7793682 2.0422382 -0.6388719 1.0929705 1.3970598 0.22601506
-2.985704 -3.4138865 -2.625166 -0.5266087 1.4998107 -0.68758893 -2.1113582 0.06391225
-0.59054947 0.45960787 -6.000998 -1.4596136 1.306181 -1.3430266 0.05673379 -1.9619209
1.1526737 -0.8120778 1.5541565 -1.9335167 -2.7124813 -1.3828207 0.0074770306 1.2520854
1.6572678 3.8643637 0.85082203 -0.1362684 -1.8364837 1.696041 -1.5260175 -0.004294317
-1.4338125 1.3010759 -1.8311093 1.4127289 -1.1555732 -0.5983746 -1.126674 -0.7581769
-1.0121833 0.029089257 -0.002655256 1.0969342 -0.9617941 -1.3858492 1.6552022 1.2044921
-1.5491168 -0.22661999 -3.9160662 2.0872633 -2.9718573 -0.74718195 0.008239308 -4.018088
-1.4163027 0.004224739 -0.026195155 0.24859287 0.018332198 0.0231715 0.02085047 -0.9160657
-1.3500956 1.1068188 -1.7044585 2.5346558 3.2507956 -2.2516882 2.4452233 1.5292069
-0.010676018 -1.1951272 1.0256575 -1.7578791 -0.27788812 -2.1006765 0.8128172 1.4449285
2.0532582 -2.444419 -0.37357077 -0.24696568 0.028229857 0.08004756 2.8424306 -1.5248666
-0.046333604 -1.1579928 -1.714544 -0.22645195 -1.6793908 -1.6058725 0.04043923 0.006475999
1.3594143 0.025701517 -2.1454551 -1.9034116 0.9135287 0.02704088 2.0022862 -1.1565987
-1.8875799 -0.012202309 -0.017415648 0.5341758 2.610423 0.023876103 -0.4097805 -2.0709713
-1.3513244 -0.015528295 2.1746416 0.0047664335 1.4584633 1.2494669 -2.9646552 -1.4380215
1.2779344 1.9548793 -0.026423384 2.3501658 -0.01278277 -1.0612146 1.9544196 0.6114119
-1.3227996 0.45137635 -0.88832533 0.9740545 -0.71935415 0.95987177 -2.0556788 1.8757252
-3.7748911 -0.017967569 1.8993686 1.7479858 -1.5356193 -0.46083087 -0.40887472 -1.5795307
-0.014250777 -1.5367373 1.9895691 0.0346193 -1.9779862 -1.3966792 0.7639101 1.3133394
1.315396 -0.6831949 -1.4556198 -2.725985 -0.709864 1.2634296 0.63009924 1.1590228
-2.3457613 -0.0041869506 0.73060423 -2.0530076 -0.08706157 1.3541595 0.0069376994 -2.3876314
-2.2943506 -1.3839389 0.0234444 -1.6004131 -1.1812019 0.39710173 -0.016141444 -1.9284604
-1.909524 1.3993291 1.4150908 1.8637561 1.2578818 -2.6697176 -1.660821 2.2314763
