AutoRobotArm/params_critic.pth (torch_old, 16393 bytes, 3 tensors)

fc1.weight f4 [300, 11]
00000000: 655c 843d ed02 153d b52a 4abf 1592 d03d
00000010: 94a5 e5bd 9da8 0cbf 6853 b63f 63c8 c6bf
00000020: 1f8e f4be 96fc d43d c1c5 10be 62a8 94be
00000030: 8c77 9cbd 1cc8 4fbe c311 56be db58 0a3e
00000040: 6d58 823e 3953 0dbe 0636 0ebc 2109 5a3e
00000050: 72d7 66be f6cb 07be 265a 0f3e feac 263f
00000060: 691a 6e3e f0f2 14be 4e49 cd3f 6e8d 74bf
00000070: 6ed3 463f f1ff d53f 31f9 ccbe e3d2 2f3d
00000080: 071d 5fbc 6b7a ea3d cb76 ddbe 4bcd 8bbd
00000090: 7313 81bd 048b 4c3f 85c9 91be 9f75 853f
000000a0: 56bb 31c0 cf9e 503f 7fb9 2a3e feb7 433e
000000b0: 2016 bc3e 26e4 e43e a88a 11bf 7ceb bebc
000000c0: 73bd 8a3f 021f 323e 33d0 3240 998f 3340
000000d0: c862 e6be 04c0 60bd bdad 123d 8af5 f53d
000000e0: 8c10 2c3f 22e8 73be 0717 07bf eab3 503f
000000f0: 5245 c33e 860c 2540 be57 4f40 c30f 7d3d
00000100: 4efa f63d 46d3 ac3d 6055 1ebe 05fb 74be
00000110: ccaf 8ebc 7fc0 88be d93b 7c3e adb5 29bd
00000120: 336e 5e3e 74de 333e 8145 163e eba4 81bd
00000130: 6776 acbd f1fd 33bf d68f 353f 0cb8 3e3e
00000140: 0485 50bf bc60 56be 5ef8 2fbe 5ab6 e6bf
00000150: 237f 1740 04cb 7bbf 9f62 5e3d 12ed f0bc
00000160: 7761 25be 03e7 943e 5f87 863e b98c 6abe
00000170: b01c ca3d b9eb 803f d532 24bf 4bb9 4f40
00000180: eeb4 393e 71a9 433e f56c 9a3c 9d22 90be
00000190: 4e25 c13e f813 6c3e f867 d93e 1ae0 eb3f
000001a0: 5097 193f 17af ae3e 7bcc 7e3f 149f bebe
000001b0: a699 813c 922b a13c 1d43 e93e 7637 ac3d
000001c0: 4ba8 07be 7169 73be 80a7 84be e9d5 03c0
000001d0: 2fee 903f 5001 21bf f9df 81bb 8900 38bd
000001e0: 5434 cdbe 5b05 1ebf 4c02 9fbd 5204 1f3d
000001f0: 17f8 bb3d 3930 853e 4f63 cdbf d7c7 d4bf
00000200: 2a71 24c0 24ca 56bf 7670 373d 8839 8d3c
00000210: dd32 fc3e 5725 b9bd e752 ebbe 857d d03d
00000220: da25 163f 868c 3ebf 54ad 4140 4190 e0bf
00000230: 17cb 81bd b1c6 debd 1fdd e8bd 6c3e 8bbe
00000240: 2b17 90be 9cbc 46be 6917 403e 3452 403e
00000250: 2510 1dbd 45f6 38bd 9cf5 7dbd 1bff 95be
00000260: 4a15 033d dc29 d5ba dc23 36bf 528f 6f3c
00000270: 2941 a0be 0c48 52be 9a7d 54bd fdfc aabf
00000280: 41c1 57bf 9ed5 fabf 00ff cdbe 4362 18be
00000290: 205d 94bd 81ec d83e 9e7a 18bf d091 d4bd
000002a0: d838 a13e c55d a1be 63f1 b1bf cd4f 8d3f
000002b0: b688 47c0 db8e c1bc 888f 193d 994c c13d
000002c0: 5a63 b9bd 79b1 96bf 2132 1d3d 1680 f73d
000002d0: f01a 0d3f 78df 61bf b1ba 913f 7778 17c0
000002e0: 01a9 02bf 1264 fa3d 6037 1bbe 9e44 633d
000002f0: b111 953e 6bf1 043e f64d babe c698 e03f
00000300: 3e98 2fbe 376c ef3f 1224 d43f 9afb bcbd
00000310: 02b3 2fbe 22b4 08be a146 8b3d ef1d 2c3f
00000320: c949 5cbf bcdb 0dbd 4fe6 b83f 2b58 b1bf
00000330: 843a 5840 1c15 0940 4a06 32be 0dfe 633d
00000340: 36ca 823c 97a2 c63c 65a3 e93e 4bb2 9cbd
00000350: 4f0e c3be 70e6 9c3e 6d35 533f 926d cabe
00000360: 036a 6740 3ec2 15be fdbb 62bd 10dd 063c
00000370: 206a 19bf a2f7 d23e c7ca 3c3e 5c86 02be
00000380: 3bf7 023f 5df6 943e 667c e8bd 4f23 3440
00000390: d45f 2c3c 9e2f 27bd c1c2 49be a1d8 183d
000003a0: 87e6 e63e d0de f6be c66b 2d3e 9f71 c53d
000003b0: 6b16 76bf 987f 5640 dd00 51bf 407b 633e
000003c0: 7f91 d13d 21de 3dbd f400 1bbf 88d0 c93e
000003d0: c10d bc3e 7994 7fbe 1afe 32be f500 713f
000003e0: fd83 0ec0 ef4a 2240 a925 fdbd 09ed ddbd
000003f0: a268 5dbc dc0b 863e 510e d33e c878 7e3e
0.06462935 0.036379743 -0.78971416 0.10184113 -0.11213222 -0.54944783 1.4244204 -1.5529903
-0.4776468 0.103997394 -0.14137937 -0.29034716 -0.07639989 -0.2029118 -0.20905213 0.13510458
0.2545809 -0.13801278 -0.008679872 0.21292545 -0.22543123 -0.13261399 0.13999233 0.65107715
0.23252262 -0.14545798 1.6037996 -0.95528305 0.77666366 1.6718732 -0.40033868 0.042925727
-0.0136177605 0.114491306 -0.43254694 -0.06826266 -0.06302538 0.7989962 -0.2847406 1.042652
-2.777059 0.8149232 0.16672324 0.19113156 0.3673563 0.44705313 -0.568522 -0.023305647
1.0839065 0.17394641 2.7939575 2.8056395 -0.4499724 -0.05487062 0.03581022 0.120097235
0.6721275 -0.2381902 -0.5276951 0.8152453 0.38138825 2.5788894 3.2397304 0.06178261
0.120594606 0.08438735 -0.15462255 -0.23923881 -0.01741781 -0.26709363 0.24632205 -0.041433025
0.21721725 0.17565328 0.14674951 -0.06330284 -0.08421021 -0.7030936 0.709226 0.18624896
-0.81452966 -0.20935339 -0.17184588 -1.8024399 2.3671348 -0.9835665 0.05429327 -0.029409919
-0.16150461 0.29082498 0.26275155 -0.22905244 0.09868753 1.0071937 -0.64140064 3.2456844
0.18135425 0.19107606 0.018850783 -0.28151408 0.37723774 0.23054492 0.42462134 1.8427765
0.5999651 0.34117958 0.9953076 -0.37230742 0.015820336 0.019674096 0.45559016 0.08409016
-0.13247792 -0.23770691 -0.25909042 -2.059931 1.1322688 -0.6289263 -0.003963467 -0.044922385
-0.40078986 -0.6172692 -0.0776411 0.03882248 0.09178179 0.26013353 -1.6045932 -1.6623486
-2.569407 -0.8390219 0.044784985 0.017239347 0.49257556 -0.09040325 -0.45961687 0.10180191
0.58651507 -0.7443317 3.026204 -1.7544023 -0.063375644 -0.10877741 -0.113703005 -0.27196062
-0.28142676 -0.19407886 0.1875893 0.18781358 -0.038345475 -0.045156736 -0.06200181 -0.29296193
0.032002725 -0.0016263085 -0.7114847 0.014621573 -0.31299713 -0.20535296 -0.051877595 -1.3358456
-0.8427926 -1.9596441 -0.40233612 -0.14881234 -0.07244325 0.42367938 -0.595621 -0.10379374
0.3148868 -0.31516853 -1.390179 1.1039978 -3.1177192 -0.02362769 0.037490398 0.09438438
-0.09052153 -1.177291 0.038377885 0.12084977 0.5511923 -0.8823161 1.1385099 -2.3667276
-0.5103913 0.12226118 -0.15157843 0.05548536 0.2911506 0.12982719 -0.36387604 1.7546623
-0.1714792 1.87049 1.6573508 -0.09227677 -0.1715813 -0.13349965 0.06800581 0.67233175
-0.8605009 -0.034633383 1.4445285 -1.3855032 3.3785715 2.1419134 -0.17385212 0.055662204
0.015965562 0.02424745 0.45632473 -0.07651194 -0.38096854 0.3064456 0.82503396 -0.3953672
3.6158454 -0.14624879 -0.05535506 0.008231416 -0.5992756 0.41204554 0.18436728 -0.12746567
0.51158494 0.2909421 -0.11351852 2.814655 0.010520894 -0.040816896 -0.19703199 0.03731597
0.45097753 -0.48216867 0.16935644 0.09640812 -0.9612796 3.3515377 -0.8164194 0.22214985
0.10232829 -0.046354417 -0.6054833 0.3941691 0.36729243 -0.24958982 -0.17479745 0.94142085
-2.226806 2.5358236 -0.12360699 -0.108362265 -0.013513716 0.26180923 0.4122186 0.24850762

fc1.bias f4 [300]
00000000: 012f 07bf 370b 7abe 29b9 4fbf 4540 bf3e
00000010: a250 37bf 4622 a5bd 52a5 7bbe 215d 1b3f
00000020: f96b 983e 1a2b 8ebf 38a1 24bf 902b 0c3f
00000030: dff1 fabd 353f f5bc eca0 093e 6a86 43be
00000040: e092 193f e6cc 38bf d62b 3b3e 26f2 11bc
00000050: f313 abbd 56cc 67be 0ab7 7e3d 0e3d b93e
00000060: 5f71 333f b874 23bf 8eca bf3e 1268 33be
00000070: 3666 3fbf 4114 fc3e 1624 d93e 0a53 cbbe
00000080: ae55 6c3e ce34 8abe a593 183f 500f b63e
00000090: 94f7 2dbf 7a3a 07bf fda2 65bd f89b 073e
000000a0: da9b 8c3d c4e9 4dbc a6d1 efbe 5976 393e
000000b0: dc48 45bf ff27 dd3d 70e9 c1be 2fa8 0fbe
000000c0: cc74 abbd 93d9 e2be ee45 a93d 785e bd3e
000000d0: 26d4 343e 8278 1f3e 0b6c 7d3f 18e6 4d3e
000000e0: 70f9 383e 5c38 5ebe e639 cdbe f4ac d3be
000000f0: e716 2bbf 721d f93e 5808 893d d428 893e
00000100: 1e41 2cbe 5f9a c8be df0d 413d 4b0f 33be
00000110: 2dd5 243f fe57 613f a277 c1be 0192 b93d
00000120: a3c3 84be 7601 1e3b 039d 063f 070c 68be
00000130: 7b71 19be 36a8 fcbd 8512 0fbe b83f a7be
00000140: a044 853d 16ca a63d 06f0 09bf c74a a8bc
00000150: 2429 34be 99a5 4cbf 9728 7d3e cb8d 96be
00000160: 421c b33d ccfd 9fbe 9fbf 94be db84 bb3d
00000170: 00fc 42bf 537d 36bf 50ae bebe 65f7 6fbe
00000180: 12e7 743e adb1 8bbe 4143 42bf 0cc2 30bf
00000190: a6ed 223f e36c 253f 3c05 1c3f f4ca a3be
000001a0: 007f 323f a07e adbe 4594 83be d07e 1c3f
000001b0: c732 d93d 35dc 56bf f828 e6be ebcc de3e
000001c0: 5217 86bf bae4 46bf 1252 eabe 2781 14be
000001d0: df7e 38be 43b9 32bf c151 20bf ab8c 0a3f
000001e0: 3a23 d8be 88fe a23c f380 563e ee51 e7be
000001f0: 71ad 84bf 3b09 55bf 0a19 c93d 3912 35bd
00000200: f56d 0abf 5e91 acbe a107 5cbe a0ea 6dbe
00000210: 4041 03bf 1769 e5bd 140b 70bd 3385 babe
00000220: bdaf 633e 281f 663e 3954 9b3d 9ec4 b2be
00000230: 5422 9dbd b1a8 b3bd 1b5f c93e 467f 4fbe
00000240: 9836 c03e 6094 25bf 23fe bbbe 880f 81be
00000250: 918d c7be 8d0b 973c cdf5 10bf 4c65 953e
00000260: b5eb 3cbd 477e 443d 6133 8c3d 4a2c 8fbe
00000270: ae35 e0be 55cf d13d 11a1 9abf 10f5 f4bd
00000280: 1df0 8bbe ed48 23be f2ba 13be a7e3 2a3f
00000290: 6b14 6dbe 9d9f 023e d526 1e3f 6a3f 00bf
000002a0: 79dc 53bf 4ad3 c2be b5c6 1b3f 6fed 093f
000002b0: c188 1e3e bf92 18be 0b52 f6be 1d08 49bf
000002c0: 0267 893e e5c5 c4be a183 10be d291 85be
000002d0: f5f2 193e c648 04be 0678 f73e 0d68 e9bd
000002e0: a8e0 5fbf 0401 d13e dfa3 5e3f 39c5 d8bd
000002f0: 9d4c 153e abdb e53e 090e 0bbd 2ea3 babd
00000300: fe47 e5bd e9a4 7c3e 6612 933d c523 9cbf
00000310: d6ff 39bf 0c64 c83e fc6a 1fbf b257 73bd
00000320: 3807 44bd 94aa 66be 2265 adbe 914d 59be
00000330: a886 4abf 1469 47bf 4aed 0abe 58ff 41bc
00000340: b959 74be 9817 36be 2865 5f3e c38c b73e
00000350: de1e 88be 98d3 13bf 4f05 a63e a215 13bf
00000360: a0af 4e3d 6feb 1fbf 6d1d eb3e fbc8 023f
00000370: 8c04 253e 6565 123e 31e5 7abe a5d3 173d
00000380: 262c 64bf 0070 193f 81c4 95be 6fb0 0cbe
00000390: 3e3a cbbd dfa5 263f ba47 aebe 34b7 cb3e
000003a0: d11b 79be b685 af3d 0b3c 2dbf 1d32 713e
000003b0: fea3 0fbe fc19 663f e839 14bf c071 f7be
000003c0: e693 a83e 2e90 f13e 0051 f9bd 3544 f6be
000003d0: 3cef 33bf 38e4 a1bc f24c 59be 422f a2be
000003e0: bcf9 e9be 7801 133d c9c4 383f 8647 18bf
000003f0: 5dd0 92be 6e5a f1bd d4b1 a0be a60f efbe
-0.528061 -0.2441834 -0.81141907 0.3735372 -0.7160741 -0.08063178 -0.24574783 0.6068898
0.29769877 -1.1106904 -0.643085 0.5475397 -0.122531645 -0.029937366 0.13440293 -0.19094244
0.5998974 -0.7218765 0.18278441 -0.00890783 -0.083534144 -0.22636542 0.06218628 0.36179394
0.70094866 -0.63849974 0.37459224 -0.17520168 -0.74765337 0.49234203 0.42410344 -0.3971179
0.23079559 -0.26993412 0.5960029 0.35558558 -0.679559 -0.52823603 -0.05606364 0.13243091
0.06865664 -0.012567941 -0.46839637 0.18111552 -0.770643 0.10798644 -0.3787341 -0.14029
-0.083718866 -0.4430662 0.08265291 0.36986136 0.17659053 0.15573314 0.98992985 0.20107305
0.18063903 -0.21701187 -0.40083236 -0.4134289 -0.6683182 0.48655277 0.066910446 0.26788962
-0.16821715 -0.39180276 0.04713237 -0.17486303 0.6438778 0.8802489 -0.37786585 0.09061051
-0.2593051 0.0024109758 0.5258333 -0.22660838 -0.14984696 -0.12336771 -0.13971908 -0.326658
0.0650723 0.081440136 -0.5388187 -0.02054347 -0.17593819 -0.7994018 0.24722515 -0.29405054
0.08745624 -0.3124832 -0.29052445 0.091561995 -0.7616577 -0.7128498 -0.37242365 -0.23434217
0.23916271 -0.27283993 -0.7588387 -0.6904609 0.6364387 0.6461927 0.6094549 -0.31990778
0.69725037 -0.3388567 -0.25699058 0.61131 0.10605388 -0.8392976 -0.44953132 0.43515715
-1.0475867 -0.7769276 -0.4576574 -0.14502393 -0.18017147 -0.69813937 -0.62624747 0.5412089
-0.42214376 0.01989676 0.20947628 -0.45179695 -1.036543 -0.8321721 0.09819229 -0.04420683
-0.5407403 -0.33704656 -0.21487285 -0.23234034 -0.5127144 -0.11201685 -0.058604315 -0.36429748
0.22235008 0.22472823 0.075844236 -0.34915632 -0.07672563 -0.0877241 0.39330372 -0.20263395
0.37541652 -0.6467953 -0.36717328 -0.25207162 -0.38975194 0.018438125 -0.5662506 0.29178846
-0.046123225 0.04797199 0.06845737 -0.27963477 -0.43790954 0.102446236 -1.2080404 -0.119608045
-0.2733163 -0.15945788 -0.14426783 0.6675362 -0.2315232 0.127562 0.61778 -0.5009676
-0.8275829 -0.38051826 0.6085008 0.5387792 0.15481855 -0.14899729 -0.4810947 -0.78528005
0.268364 -0.38432232 -0.14112712 -0.26087815 0.15034087 -0.12918386 0.48333758 -0.11396799
-0.87452173 0.40821087 0.869688 -0.10584492 0.14580007 0.44894156 -0.03394893 -0.09113155
-0.11195372 0.24672283 0.071812436 -1.2198416 -0.72656 0.3913883 -0.6227262 -0.059409805
-0.047858447 -0.22526008 -0.3386622 -0.21220995 -0.7911172 -0.7789471 -0.13567081 -0.011840664
-0.23862351 -0.17782438 0.21815932 0.3584958 -0.2658605 -0.5774474 0.32425925 -0.57454884
0.050460458 -0.6246862 0.45920888 0.5108792 0.16115016 0.14296491 -0.24501492 0.037067074
-0.89129865 0.59936523 -0.29251483 -0.13739179 -0.09923218 0.6509685 -0.34039098 0.3978821
-0.24327017 0.08570425 -0.67669743 0.23554273 -0.14027402 0.898834 -0.5790086 -0.48328972
0.32925338 0.47180313 -0.12173653 -0.48098913 -0.7028692 -0.019762143 -0.21220759 -0.3167668
-0.45698345 0.035890073 0.7217527 -0.59484136 -0.28674594 -0.11784826 -0.31385672 -0.46691626

fc2.weight f4 [1, 300]
00000000: e090 c53f 7c2c 83bc fdbf 80bf 357c 063f
00000010: d42d 5840 0edc 11c0 a839 e23c cce7 3f40
00000020: e7bc 983e 9f0d 03c0 a75b 5ebf 9d89 0440
00000030: f089 95bf d2fa 46bb 465f ddbf 5d5b adbf
00000040: 757c de3f 0350 87bf 14cd 4140 9a5b c0bf
00000050: d3c9 15bf c86a 4b3f c210 a7bf df3d e03e
00000060: 2e53 923f a8e9 32c0 6d42 ae3f 9d55 af3f
00000070: bb07 f7bf 81b3 8cbf 79b2 70c0 7287 cbbf
00000080: c180 b93e a4eb 64bf 1fe6 6a3f 975e 393e
00000090: 9404 4abb fc01 d9bf 0543 1abf 2d13 41c0
000000a0: 0246 ba3b 97cd abbf f7f4 9ebf fb52 f43f
000000b0: 91ad 4840 ecc7 cebf b278 f73e ee68 c1bb
000000c0: b5cd db3e 575c 0d3f 162c d1bf 82cc 913f
000000d0: da7e afc0 d3ca b8bf b609 fc3f bb7f 8cbf
000000e0: 3e91 3bbf ab95 353f e874 4abf e2ae c83f
000000f0: 731d 9cbf 5686 94bf 8243 393f dcf8 913f
00000100: 0484 0bbe b611 babf da9f a1bf 0252 8fbe
00000110: d9f4 223f b5ca 1340 0882 4abf 3723 bdbf
00000120: 8a67 58be 78b3 1b3e 8de2 903e 1f9c 0abf
00000130: ec30 7abb e54b 6dbf d5e8 993f df50 87bf
00000140: 6c8f 7d3e 6330 24bf 7539 2340 1e5e cbbf
00000150: 19f1 aabf a1a8 0640 eb05 1ec0 107d d5bf
00000160: 7090 a03e e338 c1bf bf52 04bc cd43 a3bf
00000170: aa71 0940 a636 6840 2447 49bf f07d 1bbf
00000180: c857 a83e cdd4 08bd 566a bbbf f1eb c7bf
00000190: 557f f03f 6849 803f f9da 28c0 745a 1540
000001a0: 6c25 1640 2e19 2e3f ac2c 513d cae2 aabf
000001b0: 40b0 9e3e c4b2 123f c01f 4dbf c459 28bf
000001c0: cd1a afbf 39b4 8abf bc65 3fbf 3d17 833e
000001d0: 1a4c d9bc 5676 cbbf 5e98 693f 1ea8 2d3f
000001e0: f13d bd3d da4c a7bf 6358 35bf 1a61 c0bf
000001f0: f584 42bf 11ab 02c0 3cc0 1c3e 361a e23e
00000200: 46ec 793e 7863 45bf 67a3 0c40 b15e f43e
00000210: 3c76 1540 07bd b83f 5b84 e0bf 4855 5ebf
00000220: 5585 ac3f 48fd 11bf 5ba5 123f 3d97 a1bf
00000230: c7b2 0cbf e204 2abf 94e3 0e40 0886 b9be
00000240: 6514 3dbf 9cc2 b43f 286c 273e 551e a5bf
00000250: 168c 0b40 f097 39bf f06a f1be a27d 08c0
00000260: c839 7cbf 11fd c3bf cc48 9abf 86ed 8aba
00000270: ee62 c7bf 64e7 b8bf b850 69bf 9d0d 91bd
00000280: e399 d9bf 7317 05bf ce09 3440 9228 8d3f
00000290: fed5 d6be 3aee b5be 474f 93bf 318d 5440
000002a0: cbeb de3f 4ad4 f13f 78e8 b6bf 6686 79bf
000002b0: 8b01 6a3e 1be5 873f 4da5 04bf d5ff 58bf
000002c0: 23d3 c4bf 6acd adbf 0d0b 923f 31f2 813f
000002d0: d6f4 8cbf 857f 0f3e 7af1 69bf 597a 05be
000002e0: 7010 f03f a4b9 ef3f 5976 70bf 9285 b23b
000002f0: fd02 90bf d7e8 aabf cab0 b4bf c1a7 5bbf
00000300: 0ce3 ba3f 1f5c e73f 9cf9 5dbe 3be4 b5bf
00000310: eed6 4840 644c 483e be2c 5b3f 368c 923e
00000320: 9098 cd3c fc56 97bf ea51 373f 0439 9bbf
00000330: 6209 fb3f 2a41 a6bf 071d 653d 7423 b8bf
00000340: 72aa ffbe d959 023f a768 3ebf 5859 c7bf
00000350: 11bb 60bf 495e dbbf 66a2 c53f 69e4 abbf
00000360: 5ee8 abbf 36ef d1bf eb78 be3e 43e7 6a40
00000370: cf7d 1340 e6b8 f3be 3344 95bf f7ff d43e
00000380: 54a7 c8bf 1bba b93e 3bed d2bf 3109 94bf
00000390: 0993 9dbe 8eb1 97bf 65a7 c13f 3e2c 3f3e
000003a0: 873b 95bf 78e4 a7bf 1d66 e73f f308 7f3f
000003b0: 660a d8bf c20d febf 0402 7e3f 6117 0f3f
000003c0: a0f7 433e 4360 e33e 29ac e43c ac3c 8cbf
000003d0: 28d1 0540 cdaa fc3f e0b3 cb3f bdb2 1740
000003e0: d6dd 98bf dda6 0f40 34bd 0340 2869 78bf
000003f0: 88f9 6340 0e10 b3bf 4b4d 333f 35b2 e7bf
1.5434837 -0.016012423 -1.005859 0.52533275 3.3777971 -2.279056 0.027615383 2.9985228
0.2983162 -2.0477064 -0.868586 2.0708992 -1.168272 -0.0030361903 -1.72947 -1.3543507
1.7381731 -1.0571293 3.028142 -1.5027955 -0.58511084 0.7945981 -1.3051989 0.43797204
1.1431634 -2.7955112 1.3614022 1.3698002 -1.9299234 -1.099228 -3.760893 -1.590071
0.36231044 -0.8942206 0.91757387 0.1810249 -0.0030825483 -1.695373 -0.60258514 -3.0167954
0.005684615 -1.3422116 -1.2418507 1.9087824 3.1355937 -1.6154761 0.4833427 -0.005902401
0.4293038 0.55219024 -1.6341579 1.1390536 -5.484235 -1.4436897 1.9690464 -1.097648
-0.73268497 0.709315 -0.79084635 1.567837 -1.2196487 -1.1603496 0.72368634 1.1404071
-0.13624579 -1.4536655 -1.2626908 -0.27992254 0.6365486 2.3092473 -0.7910466 -1.4776372
-0.21133247 0.1520518 0.28297845 -0.5414447 -0.0038176132 -0.9269393 1.202418 -1.0571555
0.24761742 -0.6413633 2.550382 -1.5888097 -1.3354827 2.1040423 -2.4691112 -1.6678791
0.31360197 -1.5095485 -0.008076369 -1.2755066 2.1475625 3.6283355 -0.78624177 -0.6073904
0.32879472 -0.033406068 -1.4641826 -1.5618879 1.8788859 1.0022402 -2.638365 2.3336458
2.346034 0.6800717 0.051067993 -1.335046 0.30993843 0.57304025 -0.8012657 -0.6576197
-1.3680054 -1.083625 -0.7476461 0.25603667 -0.026525546 -1.5895488 0.9124812 0.6783465
0.0924033 -1.3070328 -0.7083799 -1.5029633 -0.75984126 -2.041691 0.15307707 0.44160622
0.24406537 -0.771049 2.1974733 0.47728494 2.3353415 1.4432687 -1.7540392 -0.8684888
1.347819 -0.570271 0.5728356 -1.2624279 -0.5496029 -0.664137 2.2326403 -0.3623507
-0.73859245 1.412189 0.16349852 -1.2899882 2.1804252 -0.72497463 -0.471519 -2.132668
-0.9852567 -1.5311605 -1.2053466 -0.0010599352 -1.5577066 -1.4445615 -0.9113879 -0.07082675
-1.7000087 -0.51988906 2.8130984 1.1028006 -0.41960138 -0.35533315 -1.1508569 3.3211176
1.7415708 1.889291 -1.4289694 -0.974707 0.22852151 1.0616792 -0.5181473 -0.8476537
-1.5376934 -1.3578312 1.1409622 1.0152036 -1.1012218 0.14013489 -0.9138409 -0.13034953
1.8755016 1.8728528 -0.93930584 0.0054480517 -1.1250912 -1.3352307 -1.4116452 -0.8580285
1.4600539 1.8074988 -0.2167725 -1.4210275 3.1381183 0.1956039 0.85615146 0.28622597
0.025097162 -1.182342 0.71609366 -1.2126775 1.9612238 -1.2988636 0.055935886 -1.438582
-0.49934727 0.50918347 -0.74378437 -1.557414 -0.8778544 -1.7138149 1.5440185 -1.342908
-1.3430288 -1.6401126 0.37201628 3.670365 2.3045537 -0.47602004 -1.1661438 0.41601536
-1.5676064 0.362748 -1.6478647 -1.1565305 -0.3077624 -1.185106 1.512921 0.18669221
-1.1658791 -1.3116598 1.8078038 0.9962303 -1.6878173 -1.9847949 0.99221826 0.5589505
0.1913743 0.4440938 0.027914124 -1.0956016 2.090891 1.9739624 1.5914268 2.3702843
-1.1942699 2.2445595 2.058423 -0.97035456 3.5621052 -1.3989275 0.70039815 -1.810126
