AutoRobotArm/params_actor.pth (torch, 15933 bytes, 4 tensors)

fc1.weight f4 [300, 9]
0	0x3ddeceeb	0.1087931
1	0xbeb882f5	-0.36037412
2	0xbea692b7	-0.3253381
3	0xbf29241d	-0.6607073
4	0x3eddcb25	0.4331905
5	0xbf0bbbbd	-0.5458334
6	0xbdd54048	-0.10412651
7	0xbe9b0d5a	-0.30283624
8	0x3d9b6371	0.07587326
9	0xbf6cc8b7	-0.92493767
10	0xbed7ade1	-0.42124847
11	0xbf74291e	-0.9537524
12	0x3d2b92ca	0.041888036
13	0x3e0e40c4	0.13891894
14	0xbf010fcf	-0.50414747
15	0x3e8fe056	0.28100842
16	0xbfbb2467	-1.4620484
17	0xbf2cddd2	-0.6752597
18	0xbea38ff4	-0.31945765
19	0xbe904402	-0.28176886
20	0xbe0689ba	-0.13138476
21	0xbeb5fd18	-0.35544658
22	0x3e7c3f8a	0.24633613
23	0xbecb909c	-0.39758766
24	0x3e3187b8	0.17336929
25	0xbe78e981	-0.24307825
26	0x3c775973	0.01509701
27	0xbf3b7992	-0.73232377
28	0xbe59b4af	-0.21260332
29	0x3f67d9a4	0.9056647
30	0x3ecd24df	0.40067193
31	0x4028903b	2.6338031
32	0x3ed147c7	0.40875074
33	0xbf261eef	-0.6489095
34	0xbf4c0fc9	-0.79711586
35	0xbfc21edf	-1.5165671
36	0xbe853ffe	-0.26025385
37	0xbd73c177	-0.059510674
38	0xbf34874c	-0.70518947
39	0x3ea52e32	0.32261807
40	0xbffc6e50	-1.9721165
41	0xbedb8fa5	-0.4288303
42	0xbf0b0d87	-0.54317516
43	0x3efd983c	0.49530208
44	0xbf228d38	-0.6349673
45	0x3eb12f68	0.3460648
46	0x3f9b3264	1.2124753
47	0xbf30dfa2	-0.69091237
48	0x3ef603c6	0.48049754
49	0xbcc63ef3	-0.024199938
50	0x3ef8bfa4	0.4858371
51	0x3fde0839	1.7346259
52	0x3fbd0597	1.4767331
53	0xc04dabf8	-3.2136211
54	0xbf470da9	-0.7775522
55	0xbbf87fd5	-0.007583598
56	0xbf9d384e	-1.2282808
57	0xbe0fb2c2	-0.14033034
58	0xbf645cd6	-0.89204156
59	0xbf6cbf70	-0.9247961
60	0x3e1a3ac4	0.1506148
61	0xbf8a7f0c	-1.0820022
62	0xbefc95dd	-0.49333087
63	0xbeaa0e75	-0.33214155
64	0x3e0382e5	0.12842901
65	0xbeb0d48a	-0.34537154
66	0xbec9b4be	-0.39395708
67	0x3e8871d8	0.26649356
68	0x3e6becac	0.23039502
69	0xbea12936	-0.31476754
70	0x3cf54562	0.02994031
71	0x3e853401	0.26016238
72	0xbf0f9ef7	-0.56101936
73	0xbed73e85	-0.42039886
74	0xbfadca1c	-1.3577304
75	0xbf34817f	-0.70510095
76	0xbe71a766	-0.23599014
77	0xbf0db282	-0.55350506
78	0x3ff311e7	1.8989838
79	0x3ce58bf3	0.028020835
80	0xbf19d9b9	-0.60097843
81	0xbf0b7d85	-0.544884
82	0xbee3af49	-0.4446967
83	0x3f57d187	0.8430409
84	0xbf2ae6ae	-0.6675824
85	0x4059f400	3.4055176
86	0xbfbf6e1e	-1.495548
87	0x4013d13d	2.309646
88	0xbfdda365	-1.7315489
89	0xbfb9ab4f	-1.4505404
90	0xbc21c780	-0.009874225
91	0x3daf35db	0.08555194
92	0xbe9c3607	-0.3050997
93	0xbe9d5ac3	-0.30733308
94	0x3e42046b	0.18946998
95	0xbddca51b	-0.10773679
96	0xbe887fab	-0.26659903
97	0x3e22b438	0.1588906
98	0xbe41c8ce	-0.18924257
99	0xbf106eb5	-0.56418926
100	0xbd67b59e	-0.056569688
101	0xbeb8a592	-0.3606382
102	0xbed9cdaf	-0.42539737
103	0x3f03f8b3	0.5155136
104	0x3d150efe	0.03639125
105	0x3ee5b236	0.44862527
106	0xbe490e92	-0.19634464
107	0x3e21a221	0.15784504
108	0x3daacd9b	0.083399974
109	0xbe64f48b	-0.2235891
110	0xbe72165e	-0.23641345
111	0x3da40930	0.08009565
112	0xbe97fa7e	-0.29683298
113	0x3df13d80	0.11779308
114	0xbe019a68	-0.12656558
115	0x3c94ce2b	0.018164715
116	0xbdfd56ab	-0.12370046
117	0xbdfd1d9a	-0.12359162
118	0x3d4eb6df	0.05046737
119	0xbc8e8763	-0.017398542
120	0x3da93c88	0.082634985
121	0x3e7a0f7c	0.2441997
122	0xbd40bc27	-0.047054436
123	0xbe36762c	-0.17818516
124	0x3d9ad79d	0.07560656
125	0xbebfe1b0	-0.37476873
126	0xbede42d8	-0.43410373
127	0x3e3f6e63	0.18694453
128	0xbfa651e4	-1.2993741
129	0xbebab512	-0.3646627
130	0xbf30fcea	-0.69135916
131	0xbeaf6ecc	-0.3426422
132	0xbe2c5487	-0.1682912
133	0x3ee8132c	0.45327127
134	0xbf1be671	-0.608985
135	0xbf10ef4b	-0.5661513
136	0x3f700413	0.93756217
137	0xbf1bc815	-0.60852176
138	0xbf29494a	-0.66127455
139	0xbfbb2911	-1.4621907
140	0xbea9228c	-0.3303417
141	0xbffe34d6	-1.9859874
142	0x408dff2b	4.4373984
143	0xc00ec574	-2.2308016
144	0x3efacc06	0.48983783
145	0x3e79dac8	0.24399865
146	0x3f8fb5c2	1.1227343
147	0xbe5f12cd	-0.21784516
148	0x3fca473c	1.5802989
149	0x3faa3660	1.3297844
150	0x3fecd22b	1.8501638
151	0x3fd1e675	1.6398455
152	0xbf45b8c9	-0.77235085
153	0xbe2f690a	-0.17129913
154	0x3d2df249	0.04246739
155	0xbeb6612d	-0.35621014
156	0x3dd81177	0.10550206
157	0x3f12427c	0.571327
158	0xbe1649bc	-0.14676565
159	0x3f8277bc	1.019279
160	0xbf1c9746	-0.61168325
161	0xbdd13fe6	-0.10217266
162	0xbecf1482	-0.40445334
163	0xbeea804f	-0.45801017
164	0xbf196559	-0.5992027
165	0xbec555c0	-0.38541985
166	0xbf1a65b3	-0.6031143
167	0xbc5a5315	-0.013325472
168	0xbf437572	-0.7635108
169	0x3edc57b6	0.43035668
170	0x3e4a491e	0.19754454
171	0xbfa8d8ae	-1.3191125
172	0xbfe27844	-1.7692952
173	0xbf0418ff	-0.5160064
174	0xbfc4d37b	-1.5377039
175	0x3fb22f49	1.392068
176	0xbf87cac0	-1.0608749
177	0x40135796	2.3022208
178	0xbe644728	-0.22292769
179	0x3f1c1a55	0.6097768
180	0xbf689e52	-0.9086658
181	0xbf0d1047	-0.5510296
182	0xbe8d9a1e	-0.27656645
183	0x3e85150c	0.2599262
184	0x3eea0771	0.45708802
185	0xbf439a84	-0.7640765
186	0xbf5cb497	-0.8621306
187	0xbfc77ac4	-1.558434
188	0xbeb732be	-0.357809
189	0xbf260875	-0.64856654
190	0x3e3b394d	0.18283577
191	0x3ecf6052	0.40503174
192	0xbdbaa46f	-0.091133945
193	0x40832ada	4.098981
194	0xbf3c88d8	-0.73646307
195	0x4044d010	3.0751991
196	0x3dafe0ee	0.08587824
197	0xbfc53d32	-1.54093
198	0xbee2c3e7	-0.44290087
199	0x3f5a997e	0.8539046
200	0xbf20fbac	-0.6288402
201	0xbcca0b51	-0.0246636
202	0xbefceda5	-0.49400058
203	0xbff6a3c7	-1.9268731
204	0xbf35792c	-0.7088802
205	0xbef6bba2	-0.48190027
206	0xbfff8c30	-1.9964657
207	0xbed4d280	-0.4156685
208	0x3d86f8b0	0.06590402
209	0xbeb1dfd5	-0.34741083
210	0xbdaccbb5	-0.084372915
211	0xbf548c5e	-0.83026683
212	0x3cbefa57	0.02331273
213	0xbf5d7249	-0.8650251
214	0xbe835b11	-0.25655416
215	0xbe9b0e9c	-0.30284584
216	0xbf6201c5	-0.8828395
217	0xbd88bf1f	-0.066770785
218	0xbfe4ec9a	-1.7884705
219	0xbebced66	-0.3689987
220	0xbf6a426d	-0.9150761
221	0x3f0d5889	0.5521322
222	0xbe71b6d9	-0.23604907
223	0x3fb8ad9d	1.4427983
224	0xbe84d48e	-0.25943416
225	0xbf02cf1e	-0.51097286
226	0x3f21c749	0.6319471
227	0xbfadabe5	-1.3568083
228	0x3ed28c57	0.41122696
229	0xbfc6148c	-1.547502
230	0xbfa5718a	-1.2925274
231	0x3e50f8a7	0.20407353
232	0x3fcfbb42	1.6229022
233	0x3f1ce658	0.61288977
234	0xbe73b466	-0.23799285
235	0xbf1beff4	-0.60913014
236	0xbbac6ec0	-0.005262226
237	0xbfc49ff7	-1.5361317
238	0x400725e3	2.1116874
239	0xc0082957	-2.1275232
240	0x3fe2285b	1.7668566
241	0xbfab8203	-1.3399051
242	0xbfd227b0	-1.6418362
243	0xbf0df360	-0.55449486
244	0xbc1fd5cd	-0.009755564
245	0xbdbe3e73	-0.09289255
246	0xbe2e93af	-0.17048524
247	0xbdab5451	-0.083656915
248	0xbde43500	-0.111429214
249	0xbf1e3efd	-0.6181486
250	0xbe5c70e3	-0.21527438
251	0x3d714b26	0.058909558
252	0x3ea7a348	0.3274176
253	0x3ed913d0	0.42397928
254	0x3eed13af	0.4630408
255	0xbf8480bf	-1.035179

fc1.bias f4 [300]
0	0x3dadb87c	0.08482453
1	0xbee955d0	-0.45573282
2	0x3ce26e9e	0.027640637
3	0xbf5e4b43	-0.8683359
4	0xbf80548b	-1.00258
5	0x3eb2036c	0.34768236
6	0xbf152905	-0.58265716
7	0x3c5413a5	0.012944137
8	0xbf126538	-0.571857
9	0xbe91fcdb	-0.28513226
10	0xbe5c59ab	-0.2151858
11	0xbe8fae6d	-0.28062764
12	0xbe09e46b	-0.13466041
13	0xbe8a9bf6	-0.27072114
14	0x3e0eb451	0.13935973
15	0x3f4b427b	0.79398316
16	0x3e54097b	0.20706742
17	0xbf16127e	-0.58621967
18	0x3e21cde2	0.15801194
19	0xbf001836	-0.5003694
20	0xbf6828a0	-0.9068699
21	0x3d8fa252	0.07013382
22	0x3e673801	0.22579958
23	0xbe874409	-0.26419094
24	0xbf0acec0	-0.54221725
25	0xbe4de0d3	-0.20105295
26	0xbfd79440	-1.6842117
27	0xbc9c04b6	-0.019045215
28	0x3f0f89d7	0.560697
29	0xbf2f31c7	-0.6843533
30	0xbe9c0220	-0.3047037
31	0xbec35a17	-0.3815467
32	0x3e1c50ec	0.15265244
33	0xbf0bee05	-0.54660064
34	0xbf397513	-0.72444266
35	0xbff5d29d	-1.9204899
36	0xbf3ca2d6	-0.7368597
37	0x3e5baadc	0.21451896
38	0xbfd9382d	-1.6970268
39	0x3cb04b20	0.021520197
40	0xbde086f7	-0.109632425
41	0xbdc53a22	-0.096302286
42	0xbef378c1	-0.47553065
43	0xbead59de	-0.33857626
44	0x3f0f3cab	0.55951947
45	0xbef179a9	-0.47163132
46	0xbedcc916	-0.43122166
47	0xbe64897e	-0.22318074
48	0xbf061b3d	-0.5238531
49	0xbd8e8dcd	-0.0696064
50	0xbf92e939	-1.1477424
51	0xbef4823b	-0.47755608
52	0xbf149826	-0.5804466
53	0x3f6c63d1	0.9233981
54	0xbed4766e	-0.41496605
55	0xbdf8600a	-0.12127693
56	0xbf5714b2	-0.84015954
57	0xbef861c3	-0.48512086
58	0xbf1df4e7	-0.61701816
59	0xbe215fa3	-0.15759139
60	0xbf45dffc	-0.772949
61	0x3ee5fc3b	0.44919
62	0xbf1fbe71	-0.62399966
63	0xbe9a6852	-0.30157715
64	0xbc818484	-0.015810259
65	0xbeff6b33	-0.49886474
66	0x3d961076	0.073273584
67	0xbe58da98	-0.21177137
68	0x3f5232b5	0.8210862
69	0xbf696be7	-0.9118027
70	0xbe060204	-0.13086706
71	0xbf958fa2	-1.1684458
72	0x3f437d4e	0.76363075
73	0xbe660cf8	-0.22465885
74	0xbf761c8d	-0.96137315
75	0xbe313c6f	-0.1730821
76	0xbe7e8875	-0.24856742
77	0xbe128a97	-0.1431068
78	0xbf5ae797	-0.8550963
79	0xbefc47a7	-0.49273416
80	0xbe23813e	-0.1596727
81	0xbf0d8125	-0.55275184
82	0xbe5a14b1	-0.21296956
83	0xbd4549d9	-0.04816613
84	0xbc951212	-0.018197093
85	0xbdea4003	-0.114379905
86	0xbefbf2c8	-0.49208665
87	0xbe8740fb	-0.26416764
88	0x3dfa374a	0.12217577
89	0xbe9d4876	-0.30719346
90	0x3e5d978d	0.21639843
91	0x3dcad546	0.0990396
92	0xbee0823a	-0.43849355
93	0xbed8629c	-0.42262733
94	0xbe7a49c9	-0.2444221
95	0x3e9fa838	0.31183028
96	0xbe5007c5	-0.20315464
97	0x3e41bb2a	0.18919054
98	0x3d84b2e0	0.0647943
99	0x3e3c0a81	0.18363382
100	0xbeae51bf	-0.34046742
101	0x3f2a1066	0.6643127
102	0xbedfa77f	-0.43682477
103	0xc009d6f0	-2.1537437
104	0x3a7e1a3d	0.0009693241
105	0x3e1a8036	0.15087971
106	0x3ef79677	0.48356983
107	0x3e038b4e	0.1284611
108	0xbed21e56	-0.4103877
109	0xbceb22d6	-0.028703135
110	0xbf3f5ad9	-0.74748
111	0xbe557737	-0.20846258
112	0xbf29d0c1	-0.6633416
113	0xbdd059a3	-0.10173347
114	0xbe560d56	-0.20903525
115	0x3e9b8dc1	0.30381587
116	0x3ee66943	0.45002183
117	0xbda88567	-0.082285695
118	0xbe138bb3	-0.1440876
119	0x3cb75856	0.022380989
120	0x3f00f9e7	0.5038132
121	0xbce4b396	-0.027917664
122	0xbf6c717b	-0.9236066
123	0x3e19d2aa	0.15021768
124	0xbf47e64d	-0.78085786
125	0xbe8453d7	-0.25845215
126	0x3e1886e3	0.14895205
127	0xbe88cef9	-0.26720408
128	0xbe48fd59	-0.19627894
129	0xbf3bdd7c	-0.73384833
130	0x3d039dc9	0.032132898
131	0xbe9f684e	-0.31134266
132	0xbe4032da	-0.18769398
133	0xbebf4e0b	-0.3736423
134	0xbfd1d9a4	-1.6394544
135	0xbedc55bb	-0.43034157
136	0x3d688899	0.056770895
137	0xbea4860d	-0.32133523
138	0xbf78bc9d	-0.971628
139	0xbf0c48dd	-0.5479868
140	0xbcdad28a	-0.026711721
141	0xbf029645	-0.51010543
142	0xbf7626c6	-0.96152914
143	0xbe2eb24f	-0.17060207
144	0xbf736f79	-0.9509197
145	0x3e3bbdd6	0.18334135
146	0x3f6c1dcd	0.9223297
147	0xbe1ce7ab	-0.1532275
148	0xbe612611	-0.21987177
149	0xbf872d8d	-1.0560776
150	0xbe81b602	-0.25334173
151	0xbbf3e100	-0.0074425936
152	0xbe873320	-0.26406193
153	0xbf1703b0	-0.5899
154	0xbd3dc12d	-0.046326805
155	0xbef282b5	-0.47365347
156	0xbd854bc4	-0.06508592
157	0xbf38175a	-0.7191063
158	0xbe94923c	-0.29017818
159	0xbe02265f	-0.1270995
160	0xbeea15c1	-0.45719722
161	0xbf96373e	-1.1735609
162	0xbef7b770	-0.4838214
163	0xbe2304a6	-0.15919742
164	0x3ee148ec	0.44000947
165	0xbfad22a2	-1.3526194
166	0xbe872a09	-0.26399258
167	0x3e9d3252	0.30702454
168	0xbf1581e6	-0.58401334
169	0x3e9452af	0.28969333
170	0xbe29ba7b	-0.16575043
171	0xbe5b3fbb	-0.2141103
172	0x3de1564c	0.11002788
173	0xbe645b1d	-0.22300382
174	0xbebf1b47	-0.37325498
175	0xbe12212c	-0.14270467
176	0xbea22fb3	-0.31677017
177	0xbe311de5	-0.1729656
178	0xbdf47074	-0.11935511
179	0xbddd194c	-0.107958406
180	0xbea9bdb4	-0.33152544
181	0xbf2552f5	-0.6457971
182	0xbe36225a	-0.17786542
183	0xc0110466	-2.2658935
184	0xbec5b6ac	-0.3861593
185	0xbe4dc1af	-0.20093416
186	0xbe6e291c	-0.2325787
187	0x3e45a56b	0.19301383
188	0x3e5a9ee6	0.21349677
189	0x3e454b21	0.1926694
190	0x3eac4c35	0.3365189
191	0xbf1f5125	-0.6223319
192	0xbf3cbe58	-0.7372794
193	0xbe916b4c	-0.28402174
194	0xbd7b4c01	-0.06135178
195	0xbea8f240	-0.32997322
196	0xbeb9d09e	-0.36291975
197	0xbd0c6a86	-0.034281276
198	0x3d306a1b	0.04306994
199	0xbda3e363	-0.08002355
200	0x3ee2e890	0.44318056
201	0x3f9a2211	1.2041646
202	0xbf18e901	-0.59730536
203	0xbe032d1e	-0.1281018
204	0xbf224753	-0.6339008
205	0x3d6a0367	0.05713215
206	0xbe6d028d	-0.23145504
207	0xbf9501ac	-1.1641135
208	0xbf8cccc3	-1.0999988
209	0xbe5de7d8	-0.21670473
210	0xbe38e628	-0.18056548
211	0xbdb4dada	-0.08830805
212	0xbf675cb6	-0.9037584
213	0xbf4c3c28	-0.7977929
214	0xbdb9a9c0	-0.0906558
215	0xbe918b67	-0.28426668
216	0x3dafa0de	0.08575605
217	0x3e1064ae	0.14100906
218	0xbe680458	-0.22657907
219	0xbea9623c	-0.3308276
220	0xbe55ab01	-0.20866014
221	0x3d017ca1	0.031612996
222	0x3eb2e312	0.34938866
223	0x3ecc1762	0.3986159
224	0xbe34eb61	-0.17667915
225	0xbe971f14	-0.29515898
226	0xbf1b5f9c	-0.60692763
227	0xbf5aa147	-0.8540234
228	0xbf771cad	-0.9652813
229	0x3e80cdb1	0.2515693
230	0x3d17e1b3	0.037080478
231	0xbe7715b0	-0.24129367
232	0x3c176de9	0.009242513
233	0xbe7fbdc0	-0.24974728
234	0xbee44848	-0.44586396
235	0xbf85c39b	-1.0450319
236	0xbec4ccd5	-0.38437524
237	0xbe113df3	-0.14183788
238	0xbfaa9bcd	-1.3328797
239	0xbcd17732	-0.025569532
240	0x3d2a34d1	0.041554276
241	0xbf997814	-1.198977
242	0x3d880de3	0.06643274
243	0xbf1d3dcb	-0.61422414
244	0xbe8a641a	-0.27029496
245	0xbedb1037	-0.42785808
246	0xbe6562f7	-0.22401033
247	0x3c8e26f2	0.017352555
248	0xbff4ca2d	-1.9124199
249	0xbd78d3c9	-0.06074885
250	0xbe3f7eb1	-0.18700673
251	0xbe819094	-0.25305617
252	0x3f5a252f	0.8521299
253	0xbe616d2e	-0.22014305
254	0xbea06e70	-0.31334257
255	0xbdfd8a01	-0.12379838

fc2.weight f4 [2, 300]
0	0xbe979ec4	-0.29613316
1	0xbffbea23	-1.9680828
2	0x3d3e194b	0.04641084
3	0x40936f6b	4.607351
4	0x40d32ec8	6.5994606
5	0xc01d2451	-2.4553416
6	0x3f9674b4	1.1754365
7	0x3da25468	0.079262555
8	0xbfd6d607	-1.6784066
9	0xbff4dd81	-1.9130098
10	0xbd1ef349	-0.038806234
11	0x3d17cd3d	0.037060965
12	0x3d1e58da	0.038658954
13	0xbcb8ca04	-0.022557266
14	0x408d36fb	4.4129615
15	0xc0807a54	-4.0149326
16	0x3fb46adb	1.409511
17	0x3f5cc61e	0.862398
18	0x3ca65cd4	0.020307936
19	0x4089f56c	4.3112087
20	0x40273312	2.612492
21	0x4033bdef	2.8084676
22	0x405944d8	3.394827
23	0x3fb28b45	1.3948752
24	0xbe845016	-0.2584235
25	0x3f805738	1.0026617
26	0xc0a3e03d	-5.121123
27	0x3d97c904	0.074113876
28	0x3fe0a0a8	1.7549028
29	0x3cbf9d40	0.023390412
30	0xbc133b6b	-0.008986334
31	0xbfb69138	-1.4263067
32	0x3fc8655f	1.5655936
33	0x3ef7b8eb	0.4838327
34	0x406ff5e7	3.7493837
35	0xbfde5d15	-1.7372156
36	0x415a4f21	13.644319
37	0x3f5231f2	0.8210746
38	0x40376682	2.8656316
39	0x3dcd1dd0	0.10015452
40	0x4076d107	3.856508
41	0xbd1f1d33	-0.038846206
42	0x40186e4f	2.3817327
43	0xbdb6177e	-0.088911995
44	0xc0333d75	-2.800626
45	0xbe8eddb4	-0.2790352
46	0xbef4f92b	-0.4784635
47	0x3b47ba9a	0.0030476213
48	0xc05bb319	-3.4328063
49	0x3f6ba440	0.920475
50	0xbfd0a85e	-1.6301382
51	0x3eb817f0	0.35955763
52	0x3fefa7b9	1.872306
53	0x3f81e923	1.0149273
54	0x3fe7398f	1.806444
55	0xbddff7fe	-0.10935973
56	0x401909b4	2.3912172
57	0xbf58738c	-0.8455131
58	0xbf32dbd8	-0.69866705
59	0xbd6c4f58	-0.057692856
60	0xbfd3a5d3	-1.653498
61	0x3fb0b005	1.3803717
62	0x3f4fe726	0.8121208
63	0x3cab6367	0.020921422
64	0x3d3a589e	0.04549467
65	0x40035b41	2.0524447
66	0xbe407a9d	-0.18796773
67	0x3d0707de	0.032966487
68	0x3e60c8ff	0.21951674
69	0x40b8e323	5.7777267
70	0x3c174a09	0.00923396
71	0xc01e3a78	-2.4723186
72	0x3f904b46	1.1272972
73	0x3b925de8	0.004466761
74	0xc01caad6	-2.447927
75	0x3e2ccf53	0.16875963
76	0x402b8e7f	2.6805723
77	0xbf1aecc2	-0.60517514
78	0xbe9e98cc	-0.3097595
79	0x3fa32f7c	1.2748866
80	0x3cc5f73e	0.024165746
81	0xbea8f017	-0.32995674
82	0xbf8f7a06	-1.1209114
83	0xbea017f7	-0.31268284
84	0xbf9fb276	-1.2476337
85	0xbc88eb3a	-0.016713727
86	0xbef5c3b9	-0.48000887
87	0xbd21fbce	-0.03954678
88	0xc04b2643	-3.1742103
89	0xc0434c63	-3.0515373
90	0x400784c2	2.117478
91	0xbcfd878d	-0.030948425
92	0xbf6707c2	-0.9024621
93	0x405c625a	3.443503
94	0x3fa9274b	1.3215116
95	0x401e2a96	2.4713492
96	0x3e995731	0.29949334
97	0xc0571183	-3.3604438
98	0x3f628d91	0.88497263
99	0xbdb98703	-0.090589546
100	0x3e95f297	0.29286644
101	0x3fed65ed	1.854673
102	0x40ac441d	5.3833146
103	0x40ec64fb	7.3873267
104	0xc00de519	-2.217108
105	0xbcebe3a5	-0.028795073
106	0x408e0196	4.4376936
107	0xc077dd87	-3.872896
108	0x3dfff340	0.12497568
109	0x3e459c2d	0.19297858
110	0x401bf4f5	2.436826
111	0xc02eeb93	-2.7331283
112	0xc030926a	-2.7589364
113	0x3d8337c2	0.06407119
114	0xbb049030	-0.0020227544
115	0xbfda9659	-1.7077132
116	0x40947370	4.6390915
117	0x3fe47403	1.7847904
118	0x408f5498	4.4790764
119	0xbd65c207	-0.056093242
120	0xc0285b98	-2.6305904
121	0x3d4eefdb	0.050521713
122	0x4048f4b7	3.1399362
123	0x3e1cb0bc	0.15301794
124	0x409717d7	4.72166
125	0xbedd54e2	-0.43228823
126	0xbdd74cd7	-0.10512703
127	0xbfd4b5fc	-1.6618037
128	0xbfd96ee0	-1.6986961
129	0xbf8f9a9f	-1.1219062
130	0xc01a79ea	-2.413691
131	0x3c45423b	0.012039716
132	0x3e856eda	0.26061136
133	0xc01e799c	-2.4761724
134	0x401a1742	2.4076695
135	0xc08a2904	-4.317507
136	0x3fe12c55	1.7591654
137	0xc0073484	-2.1125803
138	0xc019d985	-2.4039013
139	0xbe4f064a	-0.20217243
140	0x40bcc2a9	5.898762
141	0xbe4e5a65	-0.2015167
142	0xbfd57b7e	-1.6678312
143	0xbe767286	-0.24067125
144	0xbf17f7a7	-0.5936226
145	0x3f5428e3	0.8287489
146	0xbe761a89	-0.2403356
147	0x4022c641	2.5433505
148	0x3ebc2399	0.3674591
149	0xbfa13e3e	-1.259712
150	0x3ca59401	0.020212175
151	0xbd634465	-0.055485148
152	0x3ccc9586	0.024973642
153	0xbe38fc6b	-0.1806504
154	0xbb276de8	-0.0025547687
155	0xbd9dd303	-0.07706263
156	0x3e8d85bf	0.27641103
157	0xc08e85f5	-4.453852
158	0xbe131364	-0.14362866
159	0xba8cb6fb	-0.0010735685
160	0xbf0bbf82	-0.5458909
161	0xc02f18d9	-2.7358916
162	0xc08e9444	-4.455599
163	0x3eefb671	0.4681888
164	0xbf70d298	-0.9407134
165	0x4032db5f	2.7946393
166	0x3ef59e33	0.4797226
167	0xbfe25ecd	-1.7685181
168	0x3f88cba6	1.0687149
169	0x3f7cf631	0.9881316
170	0x3e003f75	0.12524207
171	0x3c183fe8	0.00929258
172	0x3db6042b	0.08887514
173	0xbfd24778	-1.642806
174	0x408071f9	4.0139127
175	0xc0626118	-3.5371761
176	0xbdec906a	-0.11550982
177	0xbfa8a917	-1.3176602
178	0xbfb4e644	-1.4132771
179	0x4007a284	2.1192942
180	0x402b1615	2.6732228
181	0xc0cc7c5d	-6.390181
182	0x3ea2603b	0.31714043
183	0x40b42a15	5.630137
184	0xbbda5fc6	-0.006664249
185	0xc0762f33	-3.8466308
186	0xbc9ce5a5	-0.019152472
187	0xbec63d64	-0.38718712
188	0x4088456a	4.2584734
189	0x3ee19044	0.44055378
190	0xbf7328ce	-0.9498414
191	0xbe3d5c4f	-0.18492244
192	0x3f9f3be5	1.2440153
193	0xbf977257	-1.1831769
194	0x3ef2ee63	0.474475
195	0xbf9f3f62	-1.2441218
196	0xbf9cc60b	-1.2247938
197	0x3e22b074	0.15887624
198	0x3ff978f6	1.9490039
199	0xbccfbe6c	-0.025359355
200	0x40718609	3.7738059
201	0xbfd0d8cd	-1.6316162
202	0x408ea2b2	4.4573603
203	0xbe86a52e	-0.26297897
204	0xc06a74dd	-3.6633828
205	0xbe8205d1	-0.25395063
206	0xbeb3acef	-0.35092875
207	0x40906b67	4.5131106
208	0x404e9b47	3.2282274
209	0x3c4d1903	0.01251817
210	0xbcd1204a	-0.025528092
211	0xbf8ad56c	-1.0846381
212	0xbfa58bbd	-1.293327
213	0x4057af88	3.3700886
214	0x3c1e8e2d	0.009677452
215	0x3c964b1d	0.018346364
216	0xbf2bce3b	-0.6711156
217	0x3d1129cb	0.035440248
218	0xc027c790	-2.6215553
219	0x40053ef2	2.0819669
220	0xbd19da7c	-0.03756188
221	0x403b37ec	2.9252882
222	0xc0252d7a	-2.5809007
223	0xbfb38e55	-1.4027811
224	0x385a27d4	5.2012343e-05
225	0xbda5198e	-0.08061515
226	0x401b3996	2.4253898
227	0x3fb2328b	1.3921674
228	0xbff30528	-1.8985949
229	0x3c52d3a9	0.0128678465
230	0xbdbce5d4	-0.09223524
231	0x40cda23f	6.4260554
232	0xbf54e47d	-0.83161145
233	0xbf198dcd	-0.59981996
234	0xbea56dde	-0.32310385
235	0xbf76514f	-0.9621782
236	0x3eec6128	0.46167874
237	0xbd5eea02	-0.054422386
238	0xbea99b58	-0.3312633
239	0x408d0bba	4.4076815
240	0x3fb55b69	1.4168521
241	0xc068c19e	-3.6368175
242	0xbfdc3cd1	-1.720606
243	0x3f42b819	0.7606216
244	0x3c18d5f5	0.009328355
245	0x4043517d	3.0518486
246	0xbd2cb9b8	-0.042169303
247	0xbf7f2f6b	-0.9968173
248	0xbfeb45b7	-1.838065
249	0xbe630aeb	-0.22172134
250	0xbf217075	-0.6306222
251	0x3fae2d6c	1.3607612
252	0xc03d6069	-2.9590094
253	0xbbb2d2da	-0.0054572644
254	0xbcef3ba6	-0.029203247
255	0xbfb29b86	-1.3953712

fc2.bias f4 [2]
0	0x3ecd6440	0.40115547
1	0xbf12a1ac	-0.5727794
